多层感知机（MLP）/model.pt (torch, 796627 bytes, 4 tensors)

layer1.1.weight f4 [250, 784]
00000000: 9b3e 113c 8c00 7dbb 0b74 eebc 78e4 aebb
00000010: 329f 8ebc 7fb4 d8bc 916f 4ebc 8a77 853b
00000020: 98f5 9d3c 7fa0 e93b 1ed1 17bc 3392 4abc
00000030: 8b36 e1ba b7c3 573c f509 0a3d fff6 5d3d
00000040: 97b5 d1bc a157 28bd 83c1 32bd 044d 70bc
00000050: 086e 02bc ebc8 ccbb 0df1 4b3a eaaa 02bd
00000060: 48d5 5cbc b63f 383b b821 863c a061 e9bc
00000070: 4a81 793c f16f b7bc 31e3 12bc e49c d7bc
00000080: 44a3 60bc 6957 ddbc 7ece f1bc d823 49bd
00000090: 5af2 dabc c7cf 7abd 1896 0f3b 393c 69bc
000000a0: 7594 1a3d 93a4 e03c 4897 923c 4247 8c3c
000000b0: a060 063d 47bd 32bb 58b0 1ebd 230c 83bd
000000c0: 5808 dfbc 6a09 04bd 112b bdbc 024d e43c
000000d0: 73ed d2bb b6fa bf3b efdc d4bc 3391 bebc
000000e0: 6d00 cdbb 34f2 1c3b 12f2 023c d0cf aebc
000000f0: 5377 bfbc 0676 9cbb 2db5 4bbd 76ea 07bc
00000100: 9cbb debc 63f0 a2bc 6d24 1f3d 2df4 113d
00000110: d057 d23c 1d83 353d 82d9 0b3d ea40 363d
00000120: e69f 1d39 58d7 b73b 6154 9b3b 4624 8abb
00000130: c54c 31bd 2610 06bd 06af 00bd d9a7 b53c
00000140: 3937 6cbc 9888 bdbc 4828 76bc 57f5 b4bb
00000150: cd10 6dbc 0b64 1c3c 06de fabc 14d9 f5bc
00000160: 64ca 76bc 83d8 e0bc 12fb 46bd ec0a dbbc
00000170: 3e2f a03b 1bb6 82bc 8d79 bfbc 3030 313d
00000180: 267e 363d e437 ba3b 4124 1d3d ce9d 203c
00000190: 160b 2abc f8ba 0f3c fdfd 70bb f378 4dbc
000001a0: 9b7f 6b3a cff6 41bd 0f90 1e3c 2ed0 9b3c
000001b0: e924 753c e207 76bc 2526 60bc de6e d1bc
000001c0: 264a b33b 856d 14bc 281f b23c 4a62 cebb
000001d0: 67e2 c93c feb8 0ebc 6421 333c 7df4 adbb
000001e0: 6f93 5ebc c339 193d a487 8abc b371 7cbc
000001f0: f335 50bc 6c4c 1b3d 23c2 343d 0d6e 3dbc
00000200: 15c7 303d e3b6 0f3d a6ac 94bc 3b58 cabc
00000210: 6c7f fdbc b1f1 21bd 6b55 b8bc 7907 2ebc
00000220: a079 7f3c 62c5 ddbc 38ef 403c 2fd5 4a3c
00000230: 1d9b 13bd 73e1 c73c 407d 0c3c cf33 babc
00000240: d334 813c 01ac daba 9d51 0dbc 7962 d93a
00000250: b124 eb3c abb9 7ebc abb1 333d 4481 04bc
00000260: 9501 083d 8fef 85bc c5de 1a3d cbdc dabc
00000270: 8f7d 90bc e92d 353c a626 d73c b826 24bc
00000280: cf82 0bbc 3114 0bbd e9c7 403c 23d5 183c
00000290: 61a5 07bb c1fc bc3b 978a ec3a 069a e73c
000002a0: 3eb7 d13c be3f 803c 93c0 823c 1dd7 c23c
000002b0: 7ac5 f2bc 7afb c4bc 646e 013d 4712 9f3c
000002c0: 3fe8 3f3d b670 e83c ebc8 183d 254d b63c
000002d0: 592a cabc 3aa0 bc3c dcc5 5f3b e056 723c
000002e0: 3a0e f0bc c343 2dbb 2fdc c33c 7397 033d
000002f0: b095 7dbc 9e6e 8d3c d83b 4cbc e5be a5bc
00000300: 6b78 56bd 1033 f5bb f29a 8ebc 48f0 6abc
00000310: cd01 a53c df89 583c c6ef edbb e71d afbc
00000320: 8493 1bbb 0c69 fe3c 633a 87bc 1c7e f63c
00000330: d766 c13c 4a06 913c 590b cbbc 7b5d cdbc
00000340: 052b e2bc 2071 f93c 62f4 153d 79c8 12bd
00000350: fcac ee3b d00e f7bc 7d3b 933c e705 8e3b
00000360: 1695 573c d4a9 0cbd fe31 843b 4bfd 0ebd
00000370: 7efd c83a 7ec9 fcbb b787 e9bc 3793 12bd
00000380: 3b27 973b 8da5 94bc 1925 39bc a047 88bb
00000390: a34b a93c 8ed6 dc3c b6fc 163c 9ca3 2abc
000003a0: 6969 dd3b d69f a63b e24d 99bb 932c 88bc
000003b0: 9824 92bb 34d2 5dbc 977d d2bb e14f 1d3b
000003c0: 834c e0bc 8056 6c3c 2cd4 d63a 60d3 f9bc
000003d0: b374 4a3b 9876 b4bc 4fe4 1dbd 7c02 e2bc
000003e0: 90f7 f6bb 24f6 89bd 934c 94bc 33bf 073d
000003f0: 41a4 c2bb 1a4c 02bd 804f 4d3c a1a7 bfbb
0.008865024 -0.0038605062 -0.029108068 -0.005337294 -0.017409895 -0.026453255 -0.012599842 0.004073088
0.019282147 0.0071297283 -0.009266166 -0.012363958 -0.0017182393 0.013169221 0.033700902 0.054190632
-0.025599284 -0.041099194 -0.04364158 -0.014666799 -0.007960804 -0.006249537 0.0007779755 -0.031901278
-0.013478585 0.0028114147 0.0163735 -0.028488934 0.015228579 -0.022392245 -0.008965299 -0.026319928
-0.013710801 -0.02701922 -0.029517408 -0.04910645 -0.02672689 -0.06123331 0.0021909531 -0.01423555
0.037739236 0.027422225 0.017894402 0.017123822 0.032806993 -0.0027273463 -0.038742393 -0.06398799
-0.027225658 -0.03223554 -0.023091825 0.027868751 -0.0064369976 0.0058587445 -0.025984256 -0.023262596
-0.0062561543 0.0023948075 0.007992284 -0.021339327 -0.023372328 -0.0047748117 -0.04973333 -0.008295646
-0.027189068 -0.019890016 0.038853098 0.035633255 0.025676638 0.044314492 0.03414298 0.0444955
0.00015032254 0.005610388 0.0047402834 -0.00421575 -0.043286104 -0.032730244 -0.031416915 0.022174763
-0.014417463 -0.023136422 -0.015024252 -0.005522411 -0.014469338 0.0095453365 -0.030623447 -0.030010737
-0.015062902 -0.02744699 -0.048579283 -0.026738606 0.004888444 -0.015955975 -0.02337339 0.043258846
0.0445539 0.005682932 0.038364653 0.009803249 -0.01037862 0.008772604 -0.0036772483 -0.012541044
0.0008983553 -0.047354516 0.009677901 0.019020166 0.014962413 -0.015016528 -0.013680969 -0.02556556
0.0054714857 -0.009059315 0.021743372 -0.006298338 0.02464409 -0.008711098 0.010933254 -0.0053086863
-0.013584956 0.0374086 -0.016910382 -0.015407967 -0.012708175 0.03791468 0.044130456 -0.011561883
0.04315861 0.035086524 -0.018148731 -0.024700275 -0.030944549 -0.039537136 -0.022501668 -0.010621899
0.0155929625 -0.027071659 0.011775784 0.0123799285 -0.0360366 0.024399495 0.008574784 -0.022729782
0.015772259 -0.0016683341 -0.008625415 0.0016585133 0.02870402 -0.015547196 0.04387061 -0.00808746
0.033204634 -0.016349582 0.037810106 -0.02671661 -0.017637996 0.011058309 0.026263546 -0.010018997
-0.008515074 -0.033954803 0.011766412 0.0093281595 -0.0020697939 0.0057674353 0.0018046674 0.028271686
0.025600072 0.015655395 0.015960967 0.023784215 -0.02963518 -0.024045695 0.031599417 0.019417895
0.046852347 0.028374057 0.037300985 0.022253582 -0.024678396 0.02302562 0.0034145033 0.01479122
-0.029303659 -0.0026438094 0.023908703 0.032126855 -0.015477583 0.01726466 -0.01246544 -0.020232627
-0.052360933 -0.0074828938 -0.017407868 -0.014339514 0.02014246 0.013216465 -0.0072612492 -0.021376563
-0.002373905 0.03105595 -0.016507333 0.03008943 0.023608608 0.017703194 -0.024785684 -0.025068989
-0.027608404 0.03044945 0.036610015 -0.035835717 0.007283805 -0.03015843 0.017972702 0.0043341997
0.013158103 -0.03434165 0.00403428 -0.034909528 0.0015334336 -0.0077144494 -0.028507097 -0.035784926
0.004612831 -0.018145347 -0.011300349 -0.004158929 0.02066595 0.026957776 0.009215524 -0.010414984
0.0067569506 0.005084972 -0.004678474 -0.016622817 -0.0044599287 -0.013538886 -0.006423663 0.002400391
-0.027380234 0.01442492 0.0016390136 -0.0304963 0.0030892312 -0.022029206 -0.03854781 -0.027589075
-0.007536836 -0.06736401 -0.01810292 0.033141326 -0.0059399907 -0.031810857 0.012531161 -0.0058488403

layer1.1.bias f4 [250]
00000000: 54e2 c0bb 0f14 333b aa30 3ebd ce16 053e
00000010: 37f5 663a 4a95 9cbc 443a be3c da2a f6bb
00000020: a3b0 f0bc b4ab f33d 57ad 0fbd b520 a5bb
00000030: a078 b33c 038e 263d d2b6 dc3d f84f bdbb
00000040: 21e1 f2bc 31b6 ec3d f0c9 67bd 4324 103c
00000050: abcb dabc 4ec2 cdbd 027d 92bc 72bd 8f3c
00000060: d827 f43d bf62 e23c 4f95 fe3c 7854 983c
00000070: d369 6d3c 1a80 acbd 56cc a4bd 6831 13bd
00000080: 570b 2e3b 6a15 72bc e6ee da3d 0b76 8d3d
00000090: 9b7d b83b 6693 9b3c 301e ba3c 6d80 eb3d
000000a0: 8313 513d 8906 25bd fa81 04bc 6da5 903d
000000b0: 50c9 4e3d 6b53 fc3c 5705 033e 9303 27ba
000000c0: 4120 85bb f570 aebb 6386 be3d 0430 333d
000000d0: 05eb b53c d900 1e3e 2a52 a3bc 395b a7bc
000000e0: 0a99 06bd 4987 163e 15b3 d83d fbd0 c83d
000000f0: b6bb 1cbd 52ad 9f3b 3403 863d d2d7 343d
00000100: 9415 383d 6a9a a1bd 1044 8f3b 1c09 053c
00000110: d9a3 a93d 0942 0a3e 6a1c a83c 4257 a23d
00000120: 74d2 fe3b f0e2 133e de3f c7bb 1d69 fa3c
00000130: 1fef 67bd cb9f 093d 96c9 54ba 7f27 58bd
00000140: 261f 86bd e6f1 903c 4876 813d c411 943c
00000150: 215e 68bd 3702 3fbd 0457 7cbb abf8 0c3d
00000160: 9bfa f63c 3834 e23d ba86 26bd 8481 813a
00000170: 9258 9c3b bf98 83bc e9c5 6f3d 0a1f 43bc
00000180: 6d0f 4d3e 7b85 6d3e 490e 3cbc 765f d53c
00000190: 94ae 363b 12b8 b43d 5329 4c3c 93eb d2bd
000001a0: 4ad7 0c3d 8509 9d3d 6bee 013d 2e54 bf3d
000001b0: 663d 99bb 3430 bb3b 619d bc3d edd9 f53c
000001c0: a716 67bc 68ec 383d b64e 26ba a631 553c
000001d0: 58f9 be3c 0dbf c3bd e08a 043d c28d d43c
000001e0: 653f 383c 932d deba 451f 03be 04a3 39bb
000001f0: 05df 34bd 061f 193d 686b 38bd 4c64 fe3c
00000200: 03d6 0a3d 9d8e 1a3c d232 fabc 26f3 bb3d
00000210: a0a7 3f3d c88d 4fbc 41d8 923d 1a40 873d
00000220: 6cb1 ebbb 8edf e5bc 22c2 003d b4c8 d63c
00000230: 6ce3 d43d 19ec 593c a0b5 dfbd a826 f73d
00000240: 67d4 0cbd 279e 613d e2ce 8fbc e77a 043d
00000250: f2ac d03d 2ee3 06be 40a4 1a3d e939 e8bb
00000260: b060 cdbd 2714 b33d 9766 e83d 9e32 243d
00000270: 56c7 813d ee42 acbd d3ca 9fbc faa9 c43c
00000280: e8a9 813d 6a8a ce3d c13d bd3c a8af e03c
00000290: d797 3b3d ca41 6bbd 27a7 6f3d a634 603d
000002a0: ab8d f43b b704 c4bd 6048 aa3d 3701 50bb
000002b0: 85d6 84bd 3218 933d 144a 003b eb97 25bc
000002c0: 3c03 5f3c 1dc9 293d 763d 573d 271e 85bc
000002d0: 7440 083b b7c6 fa3c 5653 07bc 8f50 ab3d
000002e0: e18e 90bb 087a a93c 9db9 b8bc 29e9 f2bc
000002f0: 2356 3f3c 7b2f f7bc 607c 01bd add6 9e3d
00000300: 6aab a63d 3f6e f9bc 72cd 9c3b 22c6 2b3c
00000310: 1e0d 213d c5e4 893d bfcf abbb 2875 27bd
00000320: af07 933c 7f75 893d e9e4 a7bb 2ebc 923d
00000330: 87f2 82bd 9914 c23c 63e7 18bd a242 2ebd
00000340: 5aa7 b7bd ca98 c73b 3895 fd3c 9178 02bd
00000350: 46d6 49bc 0afd b23c 389b 33bc 24d8 363d
00000360: 34c3 5a3d 2bd8 9ebc 3350 093d 671a 9d3d
00000370: bf30 1e3d a8ed a93d 5921 0ebd 05d9 c3bc
00000380: 327b 9d3b 4d47 a13c 34a2 fe3d 4ba8 243d
00000390: 9a32 703d 3117 a73c b124 e0bc a0df fe3a
000003a0: f4ea 7c3d 9842 5d3c 2822 8e3d 1dff 583d
000003b0: 7fc6 783d 599f 74bd 381b 693d f03f 503a
000003c0: 6ed6 2f3d 5941 543c 9676 ee3c 4288 ef3d
000003d0: ea7d e9bc 0936 6b3c 20e2 2c3d 8c07 96bd
000003e0: 0f2a 7dba ff12 87bd
-0.0058863554 0.0027325188 -0.04643313 0.1299698 0.00088103436 -0.019114155 0.023221143 -0.0075124325
-0.029381102 0.11897984 -0.03507742 -0.0050392994 0.021908104 0.040662777 0.10777058 -0.0057773553
-0.029648365 0.11558188 -0.056589067 0.008797708 -0.026708445 -0.10046826 -0.017881874 0.01754639
0.11921662 0.027634976 0.031077055 0.018594965 0.0144905625 -0.08422871 -0.080467865 -0.03593579
0.0026557052 -0.014775613 0.106900975 0.069072805 0.0056302077 0.018991183 0.022719473 0.11499105
0.051044 -0.040289436 -0.008087629 0.070628025 0.050484955 0.030801496 0.12795006 -0.0006371077
-0.004062683 -0.005323524 0.09302976 0.043746963 0.022206793 0.15430011 -0.01993664 -0.02042924
-0.032860793 0.14700045 0.10581032 0.09805485 -0.038264953 0.0048729563 0.0654358 0.044151135
0.044942454 -0.0789078 0.0043721274 0.008119848 0.082832046 0.13501753 0.020521361 0.07926799
0.007776553 0.14442039 -0.0060806116 0.0305677 -0.056624528 0.033599656 -0.0008117197 -0.05277204
-0.0654891 0.017693471 0.063213885 0.018074878 -0.056730393 -0.04663297 -0.0038504014 0.034416836
0.030148795 0.11045116 -0.04065583 0.0009880518 0.0047713006 -0.016064046 0.05853835 -0.011909256
0.20025416 0.2319545 -0.011478015 0.026046496 0.0027875053 0.08824171 0.012461024 -0.102988385
0.034385003 0.07667831 0.031721514 0.09342228 -0.0046765087 0.0057125334 0.09209705 0.030011142
-0.014104522 0.04514733 -0.00063441263 0.013012325 0.023312256 -0.095579244 0.032359004 0.025946502
0.011245583 -0.0016950838 -0.12804897 -0.0028325925 -0.044158 0.037383102 -0.045024306 0.031053685
0.033895504 0.009433416 -0.030541811 0.09177236 0.04679072 -0.012668081 0.071701534 0.06604023
-0.007192781 -0.0280607 0.03143514 0.02621875 0.1039494 0.013300919 -0.10923314 0.1206792
-0.03438225 0.055082466 -0.017554704 0.03234377 0.10189237 -0.131726 0.037754297 -0.0070869816
-0.10028207 0.08744078 0.113476925 0.040087335 0.063368484 -0.08411203 -0.019505894 0.024006832
0.06331235 0.10084994 0.023100736 0.02742751 0.045799103 -0.05743579 0.05850902 0.05473771
0.007463177 -0.09571212 0.08314586 -0.0031739005 -0.06486229 0.07182349 0.0019575404 -0.010107021
0.013611611 0.041451562 0.052548848 -0.01624973 0.002079037 0.030612333 -0.008259615 0.08364975
-0.0044115637 0.020688072 -0.022549445 -0.029652195 0.011678251 -0.030174008 -0.031612754 0.0775579
0.081381634 -0.030448077 0.004785233 0.01048425 0.03931915 0.067330875 -0.005243271 -0.040883213
0.017948 0.06711864 -0.0051237238 0.07164799 -0.06393915 0.023691462 -0.037330043 -0.042544015
-0.08967467 0.006091212 0.030954942 -0.031853262 -0.012319153 0.021849174 -0.0109623 0.04463972
0.053408816 -0.019390186 0.03352375 0.076710515 0.038620707 0.082972825 -0.03469977 -0.023907194
0.004805946 0.01968732 0.124332815 0.04019956 0.058642007 0.0203968 -0.027361246 0.0019445308
0.061747506 0.013504647 0.069401085 0.05297767 0.060736176 -0.05972228 0.056910723 0.0007944098
0.042929105 0.012955033 0.02910928 0.11695911 -0.028502423 0.014356145 0.042207837 -0.07325658
-0.00096574513 -0.0659542

layer1.3.weight f4 [10, 250]
00000000: a9f4 e3bd 23da 9f3d eacb 2dbd 9c51 12be
00000010: 4841 cabd ca70 b43b d15c 83bd c155 4abd
00000020: 6733 003d 9642 a0bc 3a68 c6bc 8f76 32bd
00000030: f733 f63d ddbe aebd 065f 783e 394d 4d3e
00000040: 86ea 153e 18fa d13d c1c1 a03c c982 3f3e
00000050: c776 0c3d e85a 63be 4f50 193b c750 6a3c
00000060: 1c49 ecbd 1f00 65bc e2f1 aabd 2b8c 373d
00000070: 3e69 90bd 047c 57be b945 3abe 53f3 debd
00000080: 736a 2b3c 801e 41be 196a 53bd 9a48 07be
00000090: 3c25 30be 42c4 a4bd a222 803e 7163 ddbc
000000a0: 58b5 3b3d 4386 8abd 0557 64bd 9a61 693e
000000b0: 1d4d 85bc f6f1 1bbe e121 16bd a245 563e
000000c0: f045 55bc bd0f 56bd 5ab3 6abe 3130 0fbd
000000d0: 8b52 6bbe 4de2 58bd cc8d 643d 0ff8 3cbb
000000e0: f6e9 03bd 9c64 793c b308 83bd 7815 293e
000000f0: 01fd 4cbe 62d4 113e 3424 353e b098 e8bc
00000100: bc1c 80bd ae06 79be 1756 913d 906f 06bd
00000110: 5167 343e f6fd 31bd c882 463d 57fd 383e
00000120: 3e45 9dba f2ec 1abe bd79 b53d 5724 9f3d
00000130: fd21 6cbd b803 14be a0fd b3bd ad4e ea3d
00000140: 9c60 91bc 4538 d33c 5912 2fbe b829 8bbc
00000150: 12f2 b9bd caf0 b83c d4b8 c33b 2910 2b3e
00000160: bc9c 42b8 3296 aabc df47 4a3e ba3d ac3d
00000170: 3d42 dabd cb34 7e3e c82a 22bd f6aa c4bb
00000180: c151 4e3e e28c 84bd 49c5 08bd 0e3b 62bd
00000190: 283a 74bd fe6f 25be 228a ad3e 4b8e 50be
000001a0: 61f2 abbc fd34 36be fa0f bd3a 57df 8f3e
000001b0: d1f9 efbc 5175 88be bc0f ba3d edca 453d
000001c0: f152 6a3e e162 343c 1100 62bd 0058 6c3d
000001d0: ee9f ff3d 37cf aabd 6762 4bbd 0bf0 b7bd
000001e0: 1d50 2a3c db66 e13c ce2e 3bbe 3614 dcbd
000001f0: 1efa ffbd c7da 9e3e ef45 e0bd 597f 10be
00000200: 9d55 81be fa97 95be f0e9 ddbd 400d 1f3e
00000210: 03ca 2e3b 0b02 a4bd 43e8 4bbd 9aff d33d
00000220: 6a79 2ebd 8cfd 81bd 3451 12bd 46e2 773c
00000230: fda4 60be f581 f63c 3f99 3c3e ef87 643d
00000240: b3fd fa3d 1c5f c93d a5da 283d c081 6bbc
00000250: 2593 ae3c 2182 76bd 3a92 1bbe 1423 023e
00000260: eeac 33be e7bc 03bd f820 ea3d d271 413e
00000270: 50f5 493d 4bcf 6fbe c0e2 3b3d f700 8f3e
00000280: 8ceb 903d 6b56 71bd 066a 4a3d ae91 9a3c
00000290: 4eb5 663e ed3f 1c3e 8152 1abe 572f bf3d
000002a0: 2237 123e 4c43 493d a8a4 1b3d e3f6 1e3c
000002b0: 9e45 25be 3a71 c23c 0e29 49be 0a11 1cbe
000002c0: a0e3 1dbc eeb1 29be 07a6 cabd 6346 58bc
000002d0: ec7f 99bb 4677 9c3d b519 bc3e ebbd 47bd
000002e0: 040d d9bc 311b 13bd 5216 e1bc c989 d6bc
000002f0: b252 033e aa85 6b3e 7b7b afbc c53b a53b
00000300: 1a88 7cbd ea3d 86bc 7808 b73c 9aa4 393e
00000310: 1b36 233e fa44 8fbc 0527 243d 6725 15be
00000320: 190a 123c d118 b2bc 5c6d 2b3d 40ed 1cbd
00000330: 46ec 22bd 27e6 b63b a772 2dbd 1aee 9dbd
00000340: 20c0 23be 4670 8bbe cc60 46be e34d 60be
00000350: 8413 19bd 3dc6 193c f1b0 c4bd 1e10 d8bb
00000360: 39e0 d43c 816d e3bd ce88 0d3e 7501 92bd
00000370: 5221 21be 7730 3cbd 1483 873c 2675 1fbc
00000380: dd27 28be cdee edbb aa58 1e3e 8650 a33e
00000390: 047f 01bd 15b5 c1bd a299 8bbc 9c4e 093e
000003a0: 692c 983d 3e25 ecbb c0fa 593d 9fc7 c03d
000003b0: ea60 67bd 5edb 863d 7ba9 433d ca3c 173c
000003c0: 524f bdbd ef45 eebd f530 48bd 3441 fb3c
000003d0: 6be9 a4bd 552f 51bd d206 933d f783 033d
000003e0: 71f0 923b 6cff 52be e6eb 2bbd 1cd3 31bd
000003f0: 6824 aabd 6821 73bd 8bf2 583e 1b28 2d3d
-0.111306496 0.07805278 -0.042430796 -0.14288944 -0.09875733 0.0055066096 -0.06414188 -0.049398188
0.03129902 -0.019563 -0.024219621 -0.043570098 0.1202163 -0.08532498 0.24254999 0.2004899
0.14640245 0.1025278 0.019623639 0.18702234 0.034292962 -0.22202647 0.0023393815 0.014301485
-0.11537382 -0.01397708 -0.08346917 0.04481141 -0.07051323 -0.21043402 -0.1819066 -0.10886254
0.010462391 -0.18859291 -0.051614854 -0.13211289 -0.17201704 -0.08045246 0.25026423 -0.027024956
0.04582724 -0.0676389 -0.05574705 0.22791138 -0.016272122 -0.1522902 -0.036653403 0.20925
-0.013017163 -0.052261103 -0.2291998 -0.03495807 -0.22980706 -0.052950192 0.05579929 -0.0028834378
-0.032205544 0.015221741 -0.063981436 0.16512096 -0.20018388 0.14241174 0.17689592 -0.02839312
-0.06255481 -0.24318954 0.070964985 -0.032821238 0.17617537 -0.043455087 0.048464566 0.18065391
-0.0011998785 -0.1512945 0.0886111 0.07770603 -0.0576496 -0.14454544 -0.087886095 0.114407875
-0.017746262 0.025783667 -0.17096843 -0.016987666 -0.090793744 0.022575755 0.005972961 0.16705383
-4.6399175e-05 -0.020823572 0.19753979 0.08410211 -0.10657165 0.24824826 -0.03959158 -0.0060018254
0.20148374 -0.06472184 -0.03339127 -0.0552321 -0.059625775 -0.16156003 0.3389445 -0.2036678
-0.020989599 -0.17793651 0.0014424317 0.28100082 -0.029293926 -0.26652005 0.09085032 0.04828923
0.22883202 0.011009903 -0.055175845 0.05770111 0.12481676 -0.08340304 -0.04965439 -0.089813314
0.010395077 0.027514866 -0.18279573 -0.107460424 -0.12498878 0.3102629 -0.10950839 -0.1411108
-0.2526063 -0.2921751 -0.10835636 0.15532398 0.0026670701 -0.08008202 -0.04978205 0.103514865
-0.04259626 -0.06347188 -0.035721973 0.015129631 -0.21937938 0.030091265 0.18417834 0.0557937
0.122554205 0.09832594 0.04122414 -0.0143741965 0.021310398 -0.060182694 -0.151925 0.12708694
-0.17546436 -0.032162573 0.114320695 0.18891075 0.049306214 -0.2341892 0.045870543 0.27930424
0.07076177 -0.058920305 0.049417518 0.018868294 0.225301 0.15258761 -0.15070535 0.09335201
0.14278844 0.049136445 0.037998825 0.009702417 -0.16139838 0.023735631 -0.19644567 -0.15240875
-0.00963679 -0.16571781 -0.098949485 -0.013200375 -0.004684439 0.07639937 0.36738363 -0.048765104
-0.026495464 -0.035914604 -0.027476463 -0.026188748 0.12824515 0.23000208 -0.021421185 0.0050425255
-0.061653234 -0.016386945 0.022342905 0.18129197 0.15938608 -0.017488945 0.040076274 -0.14565049
0.00891354 -0.021740349 0.04185234 -0.038312197 -0.03977611 0.0055816355 -0.04234567 -0.0771143
-0.15991259 -0.27234095 -0.19372863 -0.21904711 -0.037372127 0.009385643 -0.096040614 -0.006593718
0.025985824 -0.111048706 0.13821718 -0.07129184 -0.15735367 -0.045944657 0.016541995 -0.00973252
-0.16421457 -0.0072611333 0.1546351 0.31897372 -0.031615272 -0.09458367 -0.017041031 0.13408893
0.074303456 -0.007206588 0.05321765 0.09413075 -0.05648891 0.0658481 0.04776905 0.009230802
-0.09243645 -0.116344325 -0.048874814 0.03067074 -0.080523334 -0.05107053 0.07179035 0.032108273
0.0044842293 -0.20605248 -0.041973017 -0.04341422 -0.08307725 -0.05935803 0.21186273 0.042274576

layer1.3.bias f4 [10]
00000000: 62ba c33d f81b fa3b 2e63 ae3d 24f3 0dbc
00000010: 0e56 80be 9e10 353f e7ad 3abd ff4e 4cbb
00000020: 1e29 00be 07b0 b0be
0.09557034 0.0076327287 0.08515011 -0.008663926 -0.25065655 0.7072848 -0.045576002 -0.0031175015
-0.12515685 -0.34509298
