Kaggle/房价预测/model.pt (torch, 155335 bytes, 5 tensors)

layer1.1.weight f4 [100, 331]
00000000: 05be 813d 29c1 68bd fab9 12be 1348 c1bd
00000010: 1468 28bd 560e 9fbc 785f 4fbd 5d5a 05be
00000020: 6bc2 b3bd c3c9 09be 6e3c acbd 8995 51bd
00000030: 0f1a e4bd cc91 27bd 5834 20bd ab1f a4bd
00000040: 63e7 afbd 33ec dc3b 45f5 7dbd 721d d9bd
00000050: 32ec 82bd 712e eebc a3c0 0bbd 91a1 febc
00000060: 4ce1 8bbc 540d 7bbd 0138 a5bc 8426 4abc
00000070: 5f15 42bd bfe8 aebd 7c44 003c f8d4 31be
00000080: f4aa 5ebd b222 08be 799c 73bd f489 97bd
00000090: 18af 233d 3d21 c93d 767b da3d 5985 0cbe
000000a0: f648 4b3e c064 c73b d6f7 1fbd 9045 4dbd
000000b0: 04e7 193c bca1 50be 9450 0a3d b042 93bc
000000c0: 1893 ccbd 2ccc a93c 1ba8 05be 57e0 78bc
000000d0: 01c1 133d aeec a33d 035c a3bd 5312 a8bd
000000e0: e5f6 d0bc 2181 433d 0b83 82bd f44d a7bc
000000f0: 9458 7ebc 582b bfbc 55b9 57bd 76f8 f63b
00000100: 645c b0bc 003a 7dbd 26da 88bc 5bfd c3bd
00000110: c21a 0abc 6c6e 0b3c 2fc5 1a3d fd83 843c
00000120: e9e5 903d 6c69 133e 8c88 ddbd c232 1abe
00000130: 993e 13bd bfe4 49bd 3b45 eebb 5705 91bd
00000140: 81d2 153d 3403 033e 9ff3 8abc 50fc c3bc
00000150: 4fd0 033e 7411 dcbd cd7c ffbd bfde 12be
00000160: 8e47 20be cc51 1e3e 8b4e 05be 3f9f 37bd
00000170: be38 ae3d eee9 ec3d fce6 4dbd f1a2 db3c
00000180: 9374 2b3d 897f b0bd c832 ab3c 0765 99bd
00000190: 37e8 33bd 6f32 c83d 913d 2abd f767 f4ba
000001a0: 58cc 82bb 14b0 433c fe07 5bbd d23b 9bbd
000001b0: 3162 a03c b89b 743a 3acd 9c3c a414 14bd
000001c0: c4a1 37bd 3d24 603d 8551 063d 00fd 3abd
000001d0: ab9e 1ebe 1b67 04be 2806 0f3d 45d0 603e
000001e0: 99ba f63d 5d1f 2dbd 2b4b 47bd 106c ddbd
000001f0: d87b 72bd 337a c3bc a03b 0fbc d221 d33c
00000200: e27c d03d 86e5 6ebd 8060 97bb 205d 673b
00000210: 585f 0d3d 021a bc3c 5e01 edbd 7ad4 dd3c
00000220: 9f0e 0d3d 0892 2dbd eda9 123d 8257 c1bb
00000230: 0870 b1bc 5b15 603d 57b9 4e3d 6910 ddbc
00000240: 4a16 babc 4450 493c ea12 88bc d622 8c3d
00000250: 8c46 2abc 5a68 873c 15ea 023e 19e5 263d
00000260: 5e4f bd3d 6582 8fbb d4d7 5a3c 9fdb d53d
00000270: 7841 f7bd 92f1 c13c c71f 51bd 589a 89bc
00000280: 7e96 21be 00b5 5dbd d7b9 523d c274 1c3e
00000290: b65e 963c 54e8 ea3d 30e0 cb3d 3857 c8bb
000002a0: 0a23 883c 6f73 c7bb 74f6 debc eac5 87bb
000002b0: c1ba 2a3d e6f4 27be 3636 19bd 6cb2 9e3d
000002c0: 5f82 40bd 189b 05be 1707 b4bd b012 0fbd
000002d0: 4727 28be f2be 01be 23d4 1c3c 6df6 913d
000002e0: fc99 cebd 6a01 5ebe 6e0d 3bbd eafb d6bd
000002f0: 0f8c c2bc 93de 143d 1213 8f3c 16f6 56bd
00000300: e698 b0bd 344e fbbc e8b0 b4bd cbbf 3c3d
00000310: 6106 b7bd c200 04bc 360c 9bbd be95 fa3d
00000320: a93d 31bd eaa0 01be 5419 323c 2b48 2abe
00000330: b7d2 6cbd 60b6 36bc cd51 0ebd 3843 f63c
00000340: 4e22 65bd 487c c13d ece6 1bbd 4a12 7dbc
00000350: 7127 8f3d 17c3 5d3d 34ef bfbd 4b75 ffbc
00000360: f980 82bd 8968 583d d282 e43d ce1f 9fbc
00000370: 46d5 09bd 5e0c 68bd 0cc8 29bd 6a26 16be
00000380: 7d3b d33d bc8c a2bd 4e17 b43c e0e1 20be
00000390: 9e55 8bbd 0fa3 5b3d 790d dabb d0d5 e73c
000003a0: 4e2f dfbc 8f17 3bbd 6bc2 51bd 98a2 34bd
000003b0: c135 173d 2151 d0bd 2ef2 4fbd 9ac4 0bbe
000003c0: 2ec9 49bd d344 5ebd a190 173d 9ed7 ef3b
000003d0: 70be 3ebb 0fdb a33d dee4 3cba be17 913c
000003e0: b9ef d83d 4619 fbbd ab05 553d c475 5bbc
000003f0: 5074 d2bd 43af f6bc a7c6 48be e989 63bd
0.063350715 -0.056824837 -0.14328757 -0.09437575 -0.04111488 -0.019416016 -0.050628155 -0.13022752
-0.08777317 -0.13455872 -0.084099635 -0.051168 -0.11137783 -0.040910527 -0.03911242 -0.08013853
-0.085890554 0.0067420243 -0.062001485 -0.106013194 -0.06392707 -0.02907488 -0.03411926 -0.0310829
-0.017075203 -0.061292008 -0.020168306 -0.012338284 -0.047383662 -0.085404865 0.007828828 -0.17366397
-0.054362252 -0.13294485 -0.059475396 -0.07399359 0.039961904 0.09820793 0.106680796 -0.13722743
0.19852051 0.0060850084 -0.039054714 -0.050115168 0.009393457 -0.20374197 0.03376825 -0.017976135
-0.099889934 0.02072724 -0.13052408 -0.015190206 0.036072735 0.080041274 -0.07976534 -0.0820662
-0.025508353 0.04773057 -0.06372651 -0.020422913 -0.015524048 -0.023336098 -0.05266698 0.007536943
-0.02152843 -0.06182289 -0.016705584 -0.09569808 -0.008429231 0.008510213 0.037785705 0.016176218
0.07075102 0.14395684 -0.1081706 -0.15058425 -0.03594837 -0.049290415 -0.0072714365 -0.070810966
0.036577705 0.1279419 -0.01696187 -0.023924023 0.12872432 -0.107455164 -0.12474976 -0.14342783
-0.15652296 0.1546089 -0.13018243 -0.044829603 0.085069165 0.11568056 -0.050269112 0.026811095
0.04185922 -0.086180754 0.020898238 -0.074899726 -0.04392263 0.097752444 -0.04156262 -0.0018646707
-0.003991645 0.011943836 -0.05347442 -0.07579769 0.019578071 0.0009331065 0.019140828 -0.036152497
-0.044832006 0.05472206 0.032792587 -0.045651436 -0.15490215 -0.12929957 0.03491798 0.21954449
0.120473094 -0.04226624 -0.04865567 -0.10811627 -0.059200138 -0.02386198 -0.008742243 0.025772963
0.101800695 -0.05832436 -0.004619658 0.003530331 0.034514755 0.02296162 -0.115725264 0.027078856
0.034437772 -0.042375594 0.035806585 -0.0059003243 -0.021659866 0.054707866 0.050469723 -0.026985364
-0.022715706 0.012287203 -0.016610581 0.06842582 -0.010392796 0.01652925 0.12784608 0.04074583
0.09243654 -0.004379558 0.0133571215 0.1044228 -0.12073034 0.02367476 -0.051055696 -0.01679723
-0.15780064 -0.054127693 0.051446762 0.15278915 0.018355709 0.11470094 0.0995487 -0.006113913
0.01661827 -0.006086759 -0.027217127 -0.0041434662 0.04168201 -0.16402015 -0.037405215 0.07748875
-0.04699933 -0.13047445 -0.08790415 -0.03492993 -0.16421233 -0.12670496 0.009572062 0.0712708
-0.10087964 -0.21680227 -0.045667104 -0.104972675 -0.023748426 0.036345076 0.017465148 -0.05248078
-0.08622913 -0.030676939 -0.08822805 0.046081346 -0.089367636 -0.008056821 -0.075706884 0.12235592
-0.043271694 -0.1265904 0.0108702965 -0.16629092 -0.05781814 -0.01115188 -0.03474598 0.03006135
-0.05594092 0.09447533 -0.03806202 -0.015446255 0.06989945 0.05414113 -0.09371796 -0.03118386
-0.06372256 0.052834067 0.111577645 -0.019424345 -0.03365066 -0.05665242 -0.041450545 -0.14663091
0.10314081 -0.07936999 0.021983769 -0.15711164 -0.068034396 0.0536223 -0.006654438 0.028300196
-0.027244236 -0.045676764 -0.051210802 -0.044100374 0.036916498 -0.10171724 -0.05076807 -0.13649216
-0.049264126 -0.054264855 0.037003163 0.0073194047 -0.0029105209 0.080007665 -0.0007205735 0.017711516
0.105925985 -0.1226068 0.05200736 -0.013394777 -0.10276091 -0.030112868 -0.1960703 -0.055551443

layer1.1.bias f4 [100]
00000000: 0f09 48bc bcb2 a0bc e102 533d 2866 c2bc
00000010: 6a8c 00bd 615c c23e 9584 4f3d 46bc 8cbd
00000020: f253 adbc fb22 bfbd f90e 16bd 27fa 3f3d
00000030: 1a72 a5bd c633 4cbd 1be7 e7bd 11b6 163f
00000040: 6b0d b2bd 04fe 4b3c 5319 0e3f 4fc1 0d3f
00000050: 8ae0 083f e39a f53e b34a 113d c59d 0b3f
00000060: 8af4 1e3f 8708 033f b761 e5bc 0856 043f
00000070: 07eb ee3e 9d15 013f ea1d 103f 341a eb3e
00000080: 4873 043f 4b12 eb3e 18b2 a6bd 6bbb dc3e
00000090: 4cdb e9bc d7e9 03bd ff09 063d 13fc 0dbd
000000a0: 8cf2 12bc 715d 103f 6a6f b43c f87c 093f
000000b0: 4119 d0bd 2897 6fbd 0db3 d53e b029 dcbd
000000c0: 8ee5 89bc d3ef 423d 424b 3cbd c349 003f
000000d0: 2c3e acbc 3d41 0cbc 4321 4d3d 0f5b bdbd
000000e0: d701 96bd bf6f 52bd 93fe 9f3e fa90 073f
000000f0: d4c8 003f 15b9 adbd 05d1 54bd b7f6 173d
00000100: 5575 0e3d 49bf 033f 2933 8dbd 9ea4 3dbd
00000110: 20c4 bf3a 5a51 083f 8e0e 6cbd b30e 0d3f
00000120: a36b 0c3f 8fa8 0d3f 658c aebd 5026 aabd
00000130: f426 213c 4860 003f e73b 0f3d b234 2fbd
00000140: 2974 023f bb17 4bbd 6877 59bd 7a56 d93e
00000150: 8ff2 253d 2390 a2bd 3481 0e3f e178 003f
00000160: d997 0c3f e5ec 0c3d a55d 0d3f d385 103f
00000170: e4d2 01be bbfa e8bd 26d8 1d3f 994e e83e
00000180: ba8e 083f dae4 d03c f8ed ea3e 7968 22bd
-0.012209191 -0.019616477 0.051516417 -0.023730353 -0.03138391 0.37961105 0.05066355 -0.06871848
-0.021158192 -0.09332844 -0.036635373 0.046869423 -0.08078404 -0.049854062 -0.11323377 0.5887156
-0.086939655 0.012450699 0.5550739 0.5537309 0.5346762 0.47969732 0.03547163 0.5453761
0.62091887 0.51184887 -0.028000696 0.51693773 0.46663687 0.50423604 0.56295645 0.4591843
0.51738405 0.45912394 -0.081394374 0.4311174 -0.028546952 -0.03220543 0.032724377 -0.034664225
-0.0089689605 0.5639258 0.022025783 0.5370631 -0.10161067 -0.058493763 0.41738167 -0.10750139
-0.016833093 0.047591995 -0.04597021 0.5011255 -0.02102574 -0.008560476 0.05008055 -0.09245884
-0.0732457 -0.0513761 0.31248912 0.5295559 0.5030644 -0.08482567 -0.05195715 0.03710052
0.034779865 0.51463753 -0.06894524 -0.04629957 0.0014630593 0.5324913 -0.057631068 0.55100554
0.5485174 0.55335325 -0.08522872 -0.08308089 0.009835947 0.50146914 0.034969237 -0.042774864
0.50958496 -0.049583178 -0.05309239 0.4244879 0.040514525 -0.07937648 0.556659 0.50184447
0.549192 0.034405608 0.55221015 0.564542 -0.12678105 -0.11375948 0.6165794 0.45372465
0.53342783 0.02549975 0.4588468 -0.039650414

layer1.3.weight f4 [50, 100]
00000000: 9ced 5f3d 9b55 f43c d501 c8bd 65fe 75bc
00000010: 6435 cc3c cb8c 133e b052 293c ea4d b8bc
00000020: 5e3f 363d ebda 38bc d772 613d ce86 99bd
00000030: 43a2 6e3d 279a a03d 621a d63d d3a6 8f3e
00000040: 5c78 153d 2029 74bd 7753 2a3e a959 7e3e
00000050: 6ef5 893e 0391 983e 4043 18bb 36b1 873e
00000060: 1c84 8a3e b293 9c3e 8e23 033d ef58 893e
00000070: f9aa 473e a434 1c3e 7b21 2f3e 6468 553e
00000080: f29e 8e3e 9c46 ab3e 8f88 223c 0701 043e
00000090: 6a25 0abd 977c 123e 1305 72bd 83f3 9e3d
000000a0: 9faf 903d c9da 333e 0e5b 143d a6f6 903e
000000b0: 6e69 823d a22a 103d f266 943e 21bb 213d
000000c0: 173d 5cbd ec55 dd3c 3c06 fd3c eb39 2b3e
000000d0: 524f c63d 12cf f63c 1fe5 983d 3e2e 053d
000000e0: 9c21 343d e5d9 9bbd 7da0 793e fc5e a33e
000000f0: 72f6 7b3e 55e2 253d 1210 643d d80a 86bc
00000100: 54ef dc3c faa4 3c3e f4c3 1f3c a91d d13c
00000110: 4dc0 af3d 3ddf 9e3e 3103 d7bd 76a7 6c3e
00000120: dad2 ac3e 464b 9e3e abbb a33c 93fd cdbc
00000130: 10e0 1a3c 7cdf a63e e499 fe3c c957 b23d
00000140: 0bab 3e3e 04ac 2f3d 359b 15bd 54a4 903e
00000150: d48b 06bd c474 0dbd ca46 6d3e 89de a23e
00000160: e971 293e aa74 70bd a16b 9c3e 1649 8f3e
00000170: 7f8f 9e3d 7608 9bbb 13f0 ae3e f5eb 7d3e
00000180: cd35 813e 7095 11bc 435f 283e 481f a6bd
00000190: 9846 ac3c 058b 9f3c bf27 c5bd 125c 0a3d
000001a0: 544e 83bc 6e96 9dbc 000c 723c c3a4 93bd
000001b0: f292 713d b9f2 cfbd 9e91 85bd 5e74 513d
000001c0: c6f4 4f3d c32a 2c3a fc0b 03be 270f 8bba
000001d0: 0a89 0dbd 827a 243d 3833 a8bd cbcb 19be
000001e0: cac2 bfbd 376c f8bc a15e c73d da0c 1ebe
000001f0: fa11 9fbd 1e8a 4bbd 87c7 f73c c692 cebd
00000200: 1da3 65bd 09c6 8dbd cd7b b5bd f994 3ebd
00000210: 22c4 8cbd 961d e83c d4f1 f8bc 9082 4cbd
00000220: b0c8 da3b 9907 8a3c ad00 24bd 0026 73bb
00000230: 0dca 9cbd 4824 a9bc 2714 853d fc8d 003c
00000240: 3a69 c0bd 4014 88bd 94d4 bbbc 1301 64bc
00000250: a1e1 c93d e0ff b63b 2c86 c3bc 768a 5f3c
00000260: 232c 043d cbe9 9b3a 3806 c2bc 0733 5abd
00000270: c7d7 4cbd e62f 6b3d 6ecd 7a3d 3ac3 ccbd
00000280: 7e35 01be 3012 b33b 208c e5bd eaab 14bd
00000290: fa12 66bd 37b6 a5bd 8a34 80bb b7bf 1b3d
000002a0: 28c3 4bbc 34fe 11bd 6231 82bd d108 2cbd
000002b0: 9c84 efbd f781 71bd b6b4 c83c f11b 0dbe
000002c0: 82ad 533d faf3 abbd ef7b bfbd a804 6c3c
000002d0: d080 a5bd 13f3 b03d 0376 33bd e48b 73bd
000002e0: 22f4 83bd 55d7 18be 26b7 d4bb 5c99 0b3d
000002f0: 0d11 08bc d094 ccbb 9784 a5bc 5fe8 63bd
00000300: dc88 f5bd 832d ecbd 244c 4bbd bae6 bdbd
00000310: 019e 9bbd 278a b03d 4b98 acbd 220e 0a3d
00000320: d6c1 8fbd f09e 5dbc 2829 c33c 00c0 2fb9
00000330: 937d bcbd 165e 18bd 10a0 28bc 9368 993d
00000340: ce5d 5d3d 98a3 64bc 35b2 953d 40cb c9bd
00000350: 0244 163d 5214 2b3d a067 493b 504b 95bd
00000360: 41c6 ad3d 562e 90bd 284d 123c aaba 0cbd
00000370: aae6 9fbd 5d94 8fbd 0aea 4fbd 80b1 7eba
00000380: 9e32 9dbd 6381 55bd 303e 703c 4c15 fb3c
00000390: 54ef d53c 10f6 17bc 38b0 91bc 8072 bfbd
000003a0: 2115 a63d 8aba 393d 5c38 fe3c 9dfa 5ebd
000003b0: 0515 9ebd 3d0a cc3d 9826 33bc ac1c 84bd
000003c0: b618 733d 4c3d 91bc 40f0 073b a033 92bc
000003d0: 4726 7cbd e177 8a3d a3b6 ba3d 2744 bc3d
000003e0: 5aa0 383d 29f4 963d 3ccb 80bd 5312 abbd
000003f0: 02de 703d 4021 afba 7250 773d 940b 883c
0.05466996 0.029825976 -0.097659744 -0.015014266 0.024927802 0.14409177 0.010334656 -0.02249809
0.044494025 -0.011282663 0.05504116 -0.07496415 0.058260214 0.07841902 0.10454251 0.28056964
0.036491737 -0.059609532 0.16633402 0.2483889 0.2694506 0.29798135 -0.0023233443 0.2650239
0.27053916 0.30581433 0.03201633 0.26825663 0.19498815 0.15254456 0.17102616 0.20840603
0.2785564 0.33452308 0.009920253 0.12891017 -0.033727087 0.1430534 -0.05908687 0.0776129
0.07064747 0.17563929 0.03621965 0.28313178 0.06367765 0.035196908 0.2898479 0.0394851
-0.053769197 0.02701851 0.030886762 0.16721313 0.09683098 0.030128036 0.074655764 0.032514803
0.043977365 -0.076099195 0.24377628 0.31908405 0.2460573 0.04049905 0.05567939 -0.016362593
0.02696959 0.18422309 0.009751309 0.025526838 0.085816 0.31029692 -0.104986556 0.23110756
0.33754617 0.30916804 0.019986948 -0.025145328 0.009452835 0.3259238 0.03107924 0.0870815
0.18619935 0.042888656 -0.03652497 0.28250372 -0.032848194 -0.034535185 0.23171535 0.31810406
0.1654736 -0.05870501 0.30550864 0.27985448 0.077422135 -0.004731233 0.34167537 0.24797042
0.2523636 -0.008885726 0.1644259 -0.08111435 0.021029755 0.01947547 -0.096267216 0.03377921
-0.01602856 -0.01923677 0.014773369 -0.0720916 0.05897803 -0.101537175 -0.06521915 0.051136367
0.050770544 0.0006567651 -0.1279754 -0.0010609374 -0.03455452 0.040155895 -0.08212894 -0.15019147
-0.09363325 -0.030325038 0.09734846 -0.1543459 -0.07767101 -0.049692266 0.03024651 -0.100865886
-0.05606376 -0.06922538 -0.08861504 -0.04652879 -0.06873347 0.02833442 -0.03038875 -0.0499292
0.006676756 0.016849326 -0.040039707 -0.0037101507 -0.07655726 -0.020647183 0.064979844 0.007846352
-0.093950704 -0.066444874 -0.022928514 -0.013916272 0.098574884 0.005584702 -0.02386769 0.0136438515
0.032268655 0.0011895237 -0.023684606 -0.05327132 -0.05001047 0.057418726 0.06123107 -0.09998174
-0.12618062 0.0054648146 -0.11208367 -0.036296763 -0.05617044 -0.08091395 -0.003912513 0.03802463
-0.012436666 -0.035642818 -0.06357075 -0.042000595 -0.11695215 -0.058961835 0.024500232 -0.1378019
0.05167914 -0.08396144 -0.0934981 0.014405407 -0.0808121 0.08640113 -0.043813717 -0.059459582
-0.06443049 -0.14925893 -0.0064915596 0.0340818 -0.0083048465 -0.006243326 -0.020204825 -0.05564153
-0.119889945 -0.11532118 -0.04963316 -0.09272523 -0.07598496 0.086201005 -0.08427485 0.033704884
-0.07019393 -0.013526663 0.023823336 -0.00016760826 -0.09203639 -0.037199102 -0.010292068 0.07490649
0.054044537 -0.013955019 0.07309381 -0.0985322 0.03668595 0.041767426 0.0030731931 -0.07289755
0.084850796 -0.07040088 0.008929528 -0.034357704 -0.078076676 -0.0701072 -0.050760306 -0.00097157806
-0.0767567 -0.052125346 0.014663264 0.030649804 0.026115097 -0.009274974 -0.017784223 -0.09348011
0.08109499 0.045343913 0.031032734 -0.054438222 -0.07718853 0.0996289 -0.010934494 -0.06450781
0.059349738 -0.017729424 0.0020742565 -0.017846882 -0.06155994 0.06761146 0.091168664 0.091926865
0.0450748 0.073707886 -0.06288764 -0.083531044 0.058805473 -0.001336135 0.060379453 0.016607083

layer1.3.bias f4 [50]
00000000: 3f5d 213f 75f9 b6bd 9857 84bd b2b0 f43e
00000010: a126 113f 24d8 debd e5a9 833d bb8c 01be
00000020: 408d f0bc 82dd 8cbd 50a7 e3bb 2596 203f
00000030: 4c89 173f fd10 a23d dd33 12be 2cdc 2b3f
00000040: 031a f13e 66bf 6a3d ab3e c9bd b40a aabd
00000050: 23e9 6ebd b0da efbb 2dbb 2d3c 8770 1c3f
00000060: 751f fe3e f3f7 bc3d a46a 9ebd f05e b8bd
00000070: b3a5 6bbd 5cb5 c13b 6c78 debd de71 00be
00000080: c32a 60bd 0f91 263f be2e 3fba 7f56 a6bd
00000090: 6f24 213f ebac f23e b6c6 d03c cc33 22be
000000a0: bfe7 02bd 5333 053f 00f9 0abe 5f9f 0b3f
000000b0: aff1 283f c567 253f 0cd1 50bd a02f 18bb
000000c0: e36a 1d3f 87ad ccbd
0.6303291 -0.08934299 -0.0646202 0.47791058 0.5669957 -0.10881069 0.06428889 -0.1265134
-0.029364228 -0.06878187 -0.0069474354 0.627291 0.59193873 0.079133965 -0.14277597 0.6713283
0.47090158 0.057311438 -0.09826406 -0.08302823 -0.058327805 -0.0073197708 0.010603708 0.61109203
0.49633375 0.0922698 -0.07735184 -0.09002483 -0.05753107 0.0059115123 -0.108628124 -0.12543437
-0.05472828 0.6506509 -0.0007293037 -0.081219666 0.6294622 0.4739755 0.025485378 -0.15840071
-0.03195929 0.5203144 -0.13571548 0.54540056 0.6599378 0.64611465 -0.050980613 -0.0023221746
0.6149122 -0.09994035

layer1.5.weight f4 [1, 50]
00000000: c144 a63e ebd7 96bd b6e5 d73d b9ac 873e
00000010: 34fc 843e 40cc 48bd 2c4f 4f3d 11ad 6bbb
00000020: c069 343c a5f8 aabd 568a dbbd 2022 993e
00000030: 8f80 b13e c09d 663d 88be 9ebd 5017 553e
00000040: 2276 9e3e 8241 ee3d f04c e739 7464 1a3c
00000050: c209 cb3d c343 03bb b20f 48bd 8c56 3e3e
00000060: 5f70 913e e0b7 42bc bbb0 323d b2a3 87bd
00000070: eaea 07be 8e33 ce3c 2d30 b1bc 8425 6cbd
00000080: 04bb 9cbd 7a77 a33e 47d3 823d c606 233c
00000090: 9d3b 403e 6039 293e f671 7e3c 00ff a3bd
000000a0: 20d3 393d 2274 1f3e 1ac5 46bd 7581 9e3e
000000b0: e7ae 783e ccb0 673e 2f45 ebbc e6fe 58bd
000000c0: 569d 973e 50cc 0ebe
0.3247433 -0.07365402 0.10541861 0.26498964 0.25973666 -0.049022913 0.050612614 -0.003596131
0.011011541 -0.083482064 -0.10719745 0.29908848 0.34668395 0.056302786 -0.07751185 0.20809674
0.30949503 0.116335884 0.00044117076 0.009423364 0.099139705 -0.0020029403 -0.048843093 0.18587703
0.28406045 -0.0118846595 0.043625575 -0.06623019 -0.13273206 0.025171068 -0.021629417 -0.057652965
-0.07652858 0.3192709 0.06387954 0.009950345 0.1877274 0.16525793 0.0155301 -0.08007622
0.04536736 0.15571645 -0.048527814 0.30958143 0.2428547 0.22626036 -0.028719513 -0.052977465
0.29612225 -0.13945127
