softmax回归/model.pt (torch, 803015 bytes, 6 tensors)

layer1.0.weight f4 [225, 784]
00000000: 0059 e7bc 01c9 b53c bddb a639 3411 6f3c
00000010: d7d2 4b3a 2d3a 0eb9 7cbe 7c3c 0265 dc3c
00000020: 17df cbbc 9044 f73c a68e 7e3c 329e e63c
00000030: a8ee f0bb bd7a c93b 7604 8e3c 4e89 ad3c
00000040: 93e6 17bc 28f4 be3b 8a60 b13c 0908 dc3c
00000050: d459 0fbd d03e 0abd 9ef8 413c 78b0 d7bb
00000060: 938c fd3c 219c 973b e6d2 463c edda 5b3c
00000070: 5ad5 b43c dbd9 863c dea6 753c a867 3fbb
00000080: 4a8a 0abb ba89 e5bc f8ac cb3b 8e01 593c
00000090: 11d9 e13c f9e0 ad3b e576 203d 80a5 363b
000000a0: 6ef6 a8bb 88b4 6f3c e7df 5c3d 9d26 d63b
000000b0: 831d d43c c74f 96ba c0a9 9f3c 0c03 fcbc
000000c0: 3f7c a8bb e251 b1bc 5c81 1cbd b3fa 663b
000000d0: ca66 b03c 8f66 e83b bd66 7e3c 5c32 09bd
000000e0: 1718 89bc 8642 77bc 1978 ec3c ce07 bc3c
000000f0: 2e70 a43c e0b4 003d fd5f dcbc 79b8 113d
00000100: bf79 24bb c37e f13c 7765 533d 7547 653a
00000110: e04f 273d 5861 183d 78ae 1f3d 8204 b9bc
00000120: 7f23 203c d3a5 ba3a 46f6 ab3a cb0d dabc
00000130: 626b bdbc a46c c73c 38bc 223c b5c4 9bbc
00000140: b7dc 23bd de25 09bd aa93 0cbc 9515 653c
00000150: a12e b5bc 7012 5d3c a848 bd3c 896c cebc
00000160: bc71 74bc 794b 563c 214e 81bc 24f6 493c
00000170: 3166 093c d236 583d 812d be3c 0d2f 67bc
00000180: 804f 2f3c 0bb1 053d f3f8 3b3d 88eb a13c
00000190: 6bcb 013d da48 26bb 98a8 ba3c a73d dcbc
000001a0: af28 df38 0b29 e93c 2289 2f3c 1c3d b03c
000001b0: 8e1a 95bc fd44 6e3c 15d6 c83b dd47 b2bc
000001c0: f328 0e3d 58e9 f13c 8e3f d9bc 79fb 7339
000001d0: 1d3d 61ba f0dc a1bc 6526 14bb 05b9 74bc
000001e0: 57c3 3b3c d77c 213d d597 f13c 7ccb 393b
000001f0: 6f97 e9bb 6444 6cbc 6a2a 83bc 5e61 0f3d
00000200: 2286 f73b b962 7c3c 21ab 69bc 8cad 92bc
00000210: 77fc ee3c 1623 573c 0b36 01bd 2b95 a0bc
00000220: 1c57 363a 7898 0d3b 5146 83bc eb40 24bb
00000230: 3cc9 87bc 83d9 d4ba 48bb 013d b0c2 05bd
00000240: 1d74 72bc d981 05bd c3d7 213d a874 8fbc
00000250: 482d 243d ec30 8d3c 5746 033c 64ef 1138
00000260: 42d7 54bb 22f3 073d 5edc ef3c 7f75 913c
00000270: f91e 2bbc dd75 ccbc cabf a0bc 3d43 41bb
00000280: 6c5e 3fbc 4a7b 84bb b2f9 edbc 3c2f c0bc
00000290: e920 d9bc c3e2 fdbc ddd2 e1bc 6200 6fbc
000002a0: 92ef 04bd 750f bf3c 640b c53c 8e2e 14bd
000002b0: 6ac7 06bd 65bf b23c 9553 35bc 068a 9d3c
000002c0: 241c 253d 4dd6 72bc a0c6 c43c 4b10 4f3c
000002d0: 15cc d83c a4bc 4a3d 79fe 2b3d 7e53 0dbc
000002e0: 9a27 003d cac6 be3c f201 98bc 5c9e e63a
000002f0: 555f a23b a4ef 0fbd 0f33 aa3c 562d a0bc
00000300: c117 4dbd ca4e 06bd 04af e83b 5979 b83c
00000310: 2e9b b73c 769d 62bc a0e6 e5bc ded5 853c
00000320: 9099 d4bc d5c3 1dbb 4625 003d f314 07bc
00000330: 0262 abba 8f53 8a3b 159e 66b8 dd5f ef3c
00000340: b62c 67bc 268b a6bc c656 a93c 524a e03c
00000350: 76b5 f9bc 9aab f1bc 954c a6bc 06b5 593c
00000360: 7021 01bc a4e5 12bd 6479 12bb f13c aa3b
00000370: 8ba7 cdbb d8e0 e1bb cea8 353c 765a 44bc
00000380: 8ca8 43ba 44e7 b73c 68c0 f03b b52b cf39
00000390: 6b06 fcbc f95c 9e3c ba4e 173d 0ec2 f33c
000003a0: eafa 873c eb03 2e3d ab65 e43a 1851 73bc
000003b0: 6a3c f53b 2363 173d 363a 833c 3f1c dc3c
000003c0: f5ec 6c3c 3c88 14bd 46a8 65bc f911 33bc
000003d0: 7337 a5bc 14a5 a53a 0f60 30bd 3631 1f3c
000003e0: 7e06 e5ba c995 82bd e8b2 e7bc edaf d23b
000003f0: 71b1 033d 4eec c53c 48bc 7e3c 3b88 fbbc
-0.02824068 0.022190573 0.00031825705 0.014591504 0.0007775253 -0.00013563847 0.015426274 0.026903633
-0.024886651 0.03018406 0.01553694 0.028151605 -0.007352669 0.0061486647 0.017336112 0.021183636
-0.009271282 0.0058274455 0.021652479 0.0268593 -0.034997776 -0.03375131 0.01183906 -0.006582316
0.03095082 0.0046267663 0.012135243 0.013418895 0.02207439 0.016461303 0.0149933975 -0.002920607
-0.0021139556 -0.028019775 0.006215688 0.013245 0.027569326 0.00530636 0.039175887 0.0027869642
-0.00515633 0.014630444 0.053924467 0.006535365 0.025892979 -0.0011467867 0.019490123 -0.030763172
-0.0051417644 -0.02164549 -0.038209304 0.0035244643 0.021533389 0.007092304 0.015527424 -0.033495292
-0.01673512 -0.015091544 0.02886586 0.02295294 0.020073023 0.031422496 -0.02690124 0.035576317
-0.002509698 0.02947939 0.051610436 0.00087463047 0.04084766 0.03720221 0.038984746 -0.022585157
0.009774088 0.0014240093 0.001311966 -0.026617905 -0.023122493 0.024343796 0.00993257 -0.019014696
-0.040005412 -0.03348338 -0.008580128 0.013982196 -0.022116961 0.013493165 0.023105934 -0.025198238
-0.0149196945 0.0130795175 -0.015784325 0.012326751 0.008386181 0.052786656 0.023215057 -0.014110339
0.010700107 0.032639544 0.045891713 0.01976563 0.031688135 -0.0025373013 0.02278547 -0.026884867
0.000106410465 0.028461954 0.010713847 0.021513514 -0.018201139 0.014542815 0.006129036 -0.021762783
0.03470702 0.029530212 -0.026519563 0.00023267967 -0.00085921754 -0.019758672 -0.0022605893 -0.01493669
0.011460147 0.039425697 0.029491344 0.0028350046 -0.007128648 -0.0144206025 -0.016011436 0.035004966
0.0075538317 0.015404397 -0.014261992 -0.01790502 0.029173119 0.013130924 -0.03154568 -0.019602379
0.00069557293 0.002160577 -0.01602474 -0.0025063108 -0.016575448 -0.001623914 0.031672746 -0.03265637
-0.014798191 -0.032594535 0.039512407 -0.01751168 0.040082246 0.017235242 0.008012376 3.4793644e-05
-0.0032476936 0.033190854 0.029279884 0.017756222 -0.010444396 -0.024958545 -0.019622702 -0.002948954
-0.011680227 -0.0040430175 -0.029049728 -0.023460023 -0.02650495 -0.030991917 -0.027566368 -0.014587494
-0.032455035 0.0233228 0.024053283 -0.03617721 -0.03290502 0.02181978 -0.011067291 0.019230854
0.04031004 -0.014821601 0.024020493 0.012638162 0.026464501 0.049496308 0.04199073 -0.008625863
0.031287767 0.02328815 -0.018555615 0.0017594802 0.004955212 -0.03514065 0.0207763 -0.019552868
-0.05007148 -0.032789983 0.0071009416 0.0225188 0.022412863 -0.013831487 -0.028064072 0.016337331
-0.02595213 -0.0024073024 0.031285547 -0.008244741 -0.0013075473 0.0042213867 -5.49835e-05 0.029220516
-0.014109781 -0.020330023 0.02067126 0.027379189 -0.030482035 -0.029500771 -0.020300189 0.013287788
-0.007881507 -0.035863534 -0.0022350186 0.005195253 -0.006276076 -0.0068932585 0.011087609 -0.011984458
-0.0007463775 0.022449143 0.0073471554 0.0003951468 -0.03076478 0.019331442 0.036940314 0.029755618
0.016599137 0.042484205 0.0017425319 -0.014850877 0.0074840086 0.03695978 0.016018968 0.026868938
0.014460792 -0.036262736 -0.01401717 -0.010929578 -0.020168042 0.0012637698 -0.04306036 0.009716323
-0.0017473248 -0.063762255 -0.028283551 0.0064296634 0.032151643 0.02416053 0.015547819 -0.030704608

layer1.0.bias f4 [225]
00000000: 27a8 5f3d cd6f 8a3d 5205 c73d b06c c13c
00000010: 2b32 1c3c 74e2 1c3c 550a ee3a ebb5 ce3b
00000020: 00fe bcbd 93d1 46bc 9e7d 813d ede5 e8bc
00000030: b69a ca3d 9710 3ebd f38e 69bd e2b0 293c
00000040: f892 8bbd 6944 9e3d cbe2 913d cbab 97bb
00000050: 7683 3e3d f5e5 cbbb ffa4 b3bd 3ab8 813c
00000060: d4b4 c0bd 143f 463d 573b 453d 45f7 89bd
00000070: 7d01 3bbc 1aee 533d 35f7 fabb 9615 e3bc
00000080: 4e76 e03c 2067 c13d aca7 0fbd ebf6 0b3c
00000090: ca5d e23d 90b0 e9bc c34a 34bd ca36 203c
000000a0: ce0a 99bd 27df 98bc 1209 16bb 9736 cebb
000000b0: 1250 aebd e28d a63c b32a c63d f4b9 52bc
000000c0: a640 823d 85b9 f5bb df9f 9839 121e 15be
000000d0: d476 673d 5a4c 49bd 1496 5b3c 3e01 0fbc
000000e0: fcdc a93c c48b 6f3d a74b 9a3d 3749 16bd
000000f0: 08c6 56bd 7b62 d0bd 2f36 02bd 310d a2bd
00000100: 52e5 13be 816f 22bc fb54 03bd c1aa d93c
00000110: 9151 233d b748 95bc 06a8 2cbc 90e5 f93c
00000120: a77a ab3c ed04 b1bc ec82 0f3d 0784 24bd
00000130: 1685 633d fa14 1c3c c783 4bbd f8a2 af3c
00000140: b8c3 8f3c a29a 9ebd 59cb 583c d09d 2e3b
00000150: de15 143d d7d2 61bc 9d54 c93d a83e 2f3d
00000160: da76 a9bc cdb0 0a3e 8eaa 803b 7467 883d
00000170: 2533 9ebd d9ca c43b 86ec 33bd 4a37 f2bd
00000180: a08b c93c bc88 a5bc 8878 973c 2a84 cdbd
00000190: 539f cf3d fe73 9e3d b8a0 cc3d 76ba 99bc
000001a0: 66d6 8cbc 14dd 84bd db1e 89bd f47c 1fbd
000001b0: 08ed e4bd bce2 2cbd ccd5 243e c9ea 6e3d
000001c0: 4018 77bb f7b3 dd3d 1171 413d c804 c13d
000001d0: e591 ce3c 25ae b9bc 36de 3cbb 765b 9a3d
000001e0: 64ad 9a3d ed7d 293d c39b 193d f805 c43a
000001f0: 63bb b3bc 5867 8bbc 752c 9c3d 434d c4bc
00000200: face 17bc 0b06 3d3d c14d 53bd 5696 e8bc
00000210: af62 b73d 6d55 85bb 1b03 8d3d 4fad 5cbd
00000220: e4da 76bc 23c7 763c 18d4 01bd 0893 803c
00000230: 6e2a 153e 9a76 403a 2077 393d a870 27bd
00000240: 894e 413d 4a98 1abb ba24 083d a5ce a53d
00000250: 70de 9b3b c0e7 62bc 8dd2 99bc c9fc 643d
00000260: 5902 953d 253c 043e 6da6 18bc 9ec4 363c
00000270: cff5 08bd 68ab 20bc 071b 2d3d 9636 6bbd
00000280: 35e7 d0bd 97ea 8abd 190b 7b3c 70df 86bd
00000290: 81f9 0cbe b79d 563b d885 c53c c821 fa3c
000002a0: 77d2 b73d 17ca 26bd f5f4 1fbd 36a1 dabd
000002b0: 7491 10bc 3cde a23d 7340 a13d 976d aebd
000002c0: abe7 863d ba42 f7bc 040c b03b 5a5a 803d
000002d0: e947 d4bc efc4 33bc b6ae 633b d4c1 173d
000002e0: 6ad9 8a3d 186e 853d 09c0 8d3c 3509 24bb
000002f0: 03ac d0bd 8ad3 41bd 18ce 6cbd 6628 243d
00000300: d0f5 c43c 4638 d3bb 1275 2cbc 3a4e 22bd
00000310: 9976 9fbd 8681 99bd 6fb2 093e 5b52 843d
00000320: 46eb 713d 3951 cd3c f05d 183d dd17 233d
00000330: 27b3 b8bd 636f 2d3d ea9f e23c dfca c83b
00000340: bce2 78bc b2f6 13ba 1a79 513d 57d8 d5bd
00000350: 194e 82bc 892d 90bd 85f7 b6bc 4350 003d
00000360: a49d 703d f6ee f63c 36ed 2bbd b19e f6bc
00000370: 4aea e2bb 013b c83c 08b4 af3c a716 e23a
00000380: d1b5 893d
0.054603722 0.067596056 0.09717812 0.023611397 0.009533445 0.009575475 0.0018161038 0.0063083074
-0.09228134 -0.012134927 0.06322788 -0.02842995 0.0989279 -0.04640254 -0.057021093 0.010357114
-0.068151414 0.07727892 0.071233355 -0.0046286336 0.04651209 -0.0062224814 -0.08771705 0.015834916
-0.0940949 0.0484 0.048152294 -0.06736616 -0.011413929 0.051740743 -0.007658864 -0.027720254
0.027400162 0.09443498 -0.035072014 0.008542757 0.11053045 -0.028526574 -0.04401661 0.009778688
-0.07472764 -0.018661095 -0.002289359 -0.0062931287 -0.08511366 0.020331327 0.09676113 -0.0128617175
0.06359987 -0.0074989223 0.00029110812 -0.14562252 0.056509808 -0.04914508 0.013402481 -0.0087283235
0.020735256 0.0584829 0.07533961 -0.036690917 -0.05243495 -0.10175034 -0.031789955 -0.07912672
-0.14442948 -0.00991428 -0.032063466 0.02657068 0.03987271 -0.01822315 -0.010538107 0.030504972
0.020932509 -0.021608794 0.035036966 -0.040164974 0.055546843 0.009526486 -0.04968622 0.021440014
0.01754938 -0.077443376 0.013232076 0.0026644357 0.036153667 -0.013783178 0.09830592 0.042784363
-0.020686556 0.13544007 0.0039265817 0.06660357 -0.07724599 0.0060056266 -0.04392674 -0.11826952
0.024602711 -0.020206802 0.018490091 -0.10034974 0.101378106 0.077369675 0.09991592 -0.01876567
-0.017192077 -0.0648748 -0.06695338 -0.038937524 -0.111780226 -0.04220842 0.16097182 0.058329377
-0.0037703663 0.10825341 0.04722697 0.0942474 0.025216052 -0.022666046 -0.0028818971 0.07536976
0.07552603 0.041379858 0.03750206 0.0014955392 -0.021939939 -0.017017052 0.07625667 -0.023962623
-0.009265656 0.04614834 -0.051587824 -0.028391998 0.08954369 -0.0040690214 0.06885358 -0.053876217
-0.015066836 0.015062126 -0.03169641 0.01569511 0.14566967 0.0007341892 0.045279622 -0.04087892
0.047194038 -0.0023589307 0.03323815 0.08096055 0.004756741 -0.013849199 -0.018777156 0.055905137
0.072758384 0.12913568 -0.009317023 0.011155276 -0.033437546 -0.009806491 0.042262103 -0.057425104
-0.10200349 -0.06783026 0.01532247 -0.06585586 -0.13767053 0.0032747814 0.024111673 0.030533686
0.0897569 -0.04072007 -0.03905197 -0.1067528 -0.008823741 0.07952544 0.07873621 -0.08516996
0.06587156 -0.030183185 0.005372526 0.06267233 -0.025913196 -0.010972246 0.0034741587 0.037050083
0.0677975 0.06515139 0.017303484 -0.0025029902 -0.10189059 -0.04732088 -0.057813734 0.04007759
0.024042994 -0.0064459173 -0.010525959 -0.039625384 -0.077862926 -0.07495408 0.13446973 0.064610206
0.059062265 0.025063144 0.03719896 0.03981768 -0.090185456 0.042342555 0.027664144 0.0061276997
-0.015190776 -0.00056443654 0.051140882 -0.10441654 -0.01590638 -0.07039935 -0.022334823 0.031326544
0.058744088 0.030143242 -0.04197427 -0.030104967 -0.006924902 0.024442198 0.02144815 0.0017249183
0.06724132

layer1.1.weight f4 [100, 225]
00000000: 8eb6 41bd 4814 c73d d33a 823c bd79 bcbd
00000010: 5fe7 b2bc ae09 61bd 862b 753c 4299 28bd
00000020: ac47 ef3d b7df 43bc 1c05 b63c 1b1b 12bd
00000030: 62bc 14bd ce7d 333c 99bc 523d f12b cbbc
00000040: 9440 a93c 3500 f8bd 4b85 0fbc d106 e4bc
00000050: d31a 013d 7ab5 f2bc fd36 bdbd 9891 96bd
00000060: 15f8 943d 0778 ae3a 0210 353d a76e 2abd
00000070: b733 0c3c 7c34 3abd 4391 583d 418f a6bd
00000080: 8839 963d 010f b3bd 64a1 18bd ba2e 0e3d
00000090: b4d5 7c3d 3f97 743d b720 8f3d 7447 2a3d
000000a0: 1240 413d 6cd8 de3c 1d75 773c e91e d5bc
000000b0: fd5e b93d 5f62 01bc 3e20 3a3d 77b2 553c
000000c0: a23f c93c a87f bf3d a787 213d d0e8 a43c
000000d0: e7c1 38bc d346 9b3d 9377 2abd 8267 983c
000000e0: 55fa 263c 4221 663d e992 003d ce1f aa3d
000000f0: 81ec 1bbd e8df 82bd b8d6 c33d 94fc 65bd
00000100: 1bf8 cf3c bab8 19bd cc21 13bd 47af 09bd
00000110: b191 ac3c 8b24 373d 13da 903b 9aa7 b73c
00000120: 3801 11bd 3696 a5bd 7a72 3d3d d6ad 9c3c
00000130: e0ec 56bd 4c06 d2bc ed7a d9bb a5a5 1dbd
00000140: 4018 7f3d 726e 85bc 3ee1 1c3e 7a27 1abb
00000150: 9948 6e3d 986f 7b3d 8233 833d c2f5 5ebc
00000160: fad0 033c 0f0d 30bd 328f dd3d 0b43 51bc
00000170: 435b 963d aca1 e2bc 2087 0ebd 6e1a 863d
00000180: 6917 8c3c 7949 393d a6e9 913d 76b1 323d
00000190: 179b 52bd 8a92 c2bc 1a7c 4d3d 87d6 303d
000001a0: d000 523b 97ba bb3d a049 683c 720c d3bc
000001b0: db43 073d 1cb8 a4bb f010 a6bd 6689 243c
000001c0: 7ebc 55bd 70d9 21bd f461 a2bc ccae 823c
000001d0: dc39 1e3c d988 3abc ef0d 95bc 1f0f 24bc
000001e0: 21be b0bc 8f5c cbbc 6e31 803d ab9f 7dbd
000001f0: 8276 38bd 7e69 64bd 5701 9c3d 2da3 5dbd
00000200: 81af 8e3c fc9b 063d f193 463d 3ec2 553b
00000210: c7d5 f1bd 871c 2ebd a5fe 1cbc dcca 18bd
00000220: 723f 9f3d d603 123d 4ea5 f1bc ccb6 0bbc
00000230: a1f2 d4bc 4516 04bd 6415 d73d 10d5 15bd
00000240: 091d a2bc 45a6 c7bb f8c6 0ebc eddc 8dbd
00000250: c429 09bd 6e29 72bd 995f 7cbb 3eaa bcbd
00000260: b4a4 803c ca8b 81bd 002c 843d 9199 753a
00000270: 91ef 413d 71ef 0b3d bb14 9b3c d214 a7bd
00000280: cdc3 d63d d6db e7bb 458e ac3c aff2 04ba
00000290: fe1a 1e3d bd8f 7bbd b98d 7d3d 3267 8d3d
000002a0: f2fe 5ebd 46eb 8f3d 4084 d63c 0bb9 873c
000002b0: 0c14 48bd eab3 873d cc74 eabc 7816 90bd
000002c0: 1e57 b43d 2ea0 61bd 93a0 a43d 8003 0f3d
000002d0: 0e83 e43c aa17 53bd a62f 8ebd 2b97 6c3d
000002e0: 485e 813a e7b0 25bd 23c6 423c c0d5 a5ba
000002f0: 96bb 853d 76c6 8fbb 3387 7cbc b095 02bd
00000300: 1e05 d7bc 711c 163a 8196 223c 2a7f 393d
00000310: 5fdd 8c3d 7baf aa3d 98e9 2fbd d22b 71bd
00000320: b8e7 4bbd e07d 1ebd 3810 5d3c 181c 50bc
00000330: dba0 1bbd 6456 90bd 83c3 8b3c 9cab ca3d
00000340: 596a 833d a852 033c 4e52 1d3d 665e 483c
00000350: b76a 7e3d a6af b1bd d583 8d3c 6e90 b83c
00000360: 1a5c 45bc 5430 943d 80a4 82bd c3b2 cb3d
00000370: 5ba7 ad3d 26b7 1f3c 386c a3bd 46b5 21bd
00000380: fd6b bf3d 502f 803d de42 17bd e6f6 743b
00000390: 9d54 233c be31 003d 7f03 a0bd 8c8a 38bd
000003a0: 7504 96bd 4c7c a6bc fd8b ad3b 0b13 ac3c
000003b0: b437 64bd e571 3abd c1e3 ee3c 637a 81bd
000003c0: 88b9 843b 5f44 91bd 5cc2 013e e0b0 83bc
000003d0: e4a0 6f3d d45f 78bd 8840 fdbb 0acd 913d
000003e0: a86f 0bbd a0ff cc3c ce43 51bd 9c3f dcbb
000003f0: 7a51 68bb 4a55 653d 7811 e73c 40ac 6ebd
-0.04729324 0.09720665 0.01589719 -0.09202907 -0.021838842 -0.054940872 0.01496399 -0.041161783
0.11683592 -0.011955193 0.022219233 -0.03567038 -0.03631247 0.010955287 0.051449392 -0.024801226
0.020660676 -0.121094145 -0.008759807 -0.027835282 0.031519722 -0.02962755 -0.09239004 -0.073519886
0.072738804 0.0013310917 0.04420472 -0.041609433 0.008557252 -0.04546021 0.052872907 -0.08132792
0.07335192 -0.08743096 -0.03726329 0.03471253 0.06172724 0.059714552 0.06988662 0.04157205
0.047180243 0.027202807 0.015103606 -0.026015716 0.09051321 -0.007896989 0.045440905 0.013043038
0.024566475 0.0935052 0.03943601 0.020130545 -0.011276699 0.07581868 -0.04161794 0.018604044
0.01019152 0.05618406 0.031390104 0.083068475 -0.038067345 -0.06390363 0.09562439 -0.05614908
0.02538686 -0.037529685 -0.035920903 -0.033614423 0.021065565 0.044712584 0.0044205277 0.022418786
-0.035401553 -0.08085291 0.04625175 0.01912586 -0.052471995 -0.025637768 -0.0066369683 -0.03848805
0.062278986 -0.016288016 0.15320298 -0.0023522065 0.058174703 0.06138572 0.06406309 -0.013608398
0.008045429 -0.042981204 0.10818328 -0.012772332 0.073416255 -0.027664982 -0.034796834 0.0654801
0.017101007 0.045236085 0.07124643 0.04362627 -0.051417436 -0.023751516 0.05016718 0.04317334
0.0032043941 0.091664486 0.01417771 -0.02576277 0.033023696 -0.0050268304 -0.08108699 0.010042524
-0.052181713 -0.039514005 -0.019822098 0.01595249 0.009657349 -0.011385166 -0.01819512 -0.010013371
-0.021575036 -0.024824409 0.06259428 -0.06191985 -0.045034893 -0.055764668 0.07617443 -0.054110695
0.017417671 0.032863602 0.04848093 0.0032616998 -0.11808353 -0.042507675 -0.009582196 -0.037302837
0.07775773 0.03564819 -0.029497769 -0.008527469 -0.0259946 -0.0322478 0.10502127 -0.036580145
-0.019789236 -0.006092819 -0.00871443 -0.06926904 -0.033487096 -0.05912154 -0.003850913 -0.092121586
0.015703537 -0.06325491 0.06453705 0.00093688915 0.04734761 0.034163896 0.018930783 -0.08158268
0.10486565 -0.007075767 0.021063933 -0.0005071563 0.03859996 -0.061416376 0.061902735 0.069044486
-0.054442354 0.07027297 0.026186109 0.016567728 -0.048847243 0.06626113 -0.028620146 -0.070355356
0.08805679 -0.0550844 0.080384396 0.034915447 0.027894523 -0.05153624 -0.06942682 0.057761353
0.0009870017 -0.04045191 0.01188806 -0.0012652203 0.0652992 -0.004387672 -0.015413093 -0.031881034
-0.026247557 0.0005726284 0.009923578 0.04528729 0.06878161 0.083342515 -0.04294738 -0.05887968
-0.04978153 -0.038694263 0.013492636 -0.012702011 -0.0379952 -0.07047728 0.017061 0.09896013
0.064167686 0.008015312 0.03840857 0.012229538 0.06211349 -0.086760804 0.017274776 0.022529807
-0.0120458845 0.0723578 -0.06379032 0.099462055 0.08479186 0.009748256 -0.079796255 -0.039479516
0.09346769 0.06259024 -0.036929004 0.0037378608 0.009968904 0.031297438 -0.07813167 -0.045054004
-0.07325069 -0.020322941 0.005296229 0.021005174 -0.055717185 -0.045518775 0.029161336 -0.063221715
0.0040504374 -0.07093119 0.12671798 -0.016075552 0.058503047 -0.060638264 -0.00772864 0.07119186
-0.03404203 0.025024235 -0.051090054 -0.00672145 -0.0035448954 0.05598954 0.028206572 -0.05826974

layer1.1.bias f4 [100]
00000000: 7980 e23c 0de6 693d c615 003c 3354 4bbd
00000010: 3a87 2fbd edf0 c8ba a379 84bb 34c9 6d3e
00000020: 18a4 f23d 9a7a 3dbc 3453 063c cb41 b7bb
00000030: e04e 0e3e 0c3e 403d 4437 8dbc 2918 b33d
00000040: 195d f13d 78b5 f9bc 9214 abbc 8282 e53d
00000050: 527a 23bd 7d7e a9bc 11d3 fbbd b281 4f3c
00000060: 3680 28bd 4c51 c13c d450 e8bd 6406 013d
00000070: 5b06 50bc 6a22 5bbd 6321 bbbd 1198 b13d
00000080: efde d3bd 1f91 533a afe9 863d 52ba 46bd
00000090: dcb4 f6bd ff63 f53d 29c2 7a3d c471 a2bd
000000a0: 80f8 693d d221 39bb 2e16 2f3e 0b89 1e3e
000000b0: df05 c33d dc5e 1d3d dba7 b7bc 8b35 cebd
000000c0: 6b2f aa3c 085c 5c3d 16b7 e13d 0a50 4abd
000000d0: b7c6 0fbe 7a4b e1ba 5345 853c 5817 8cbb
000000e0: c891 573d 11bf c0bd a134 69bd 7a68 e0bd
000000f0: ce72 05bd fb23 b0bc 2bcb ef3b 3a45 1abd
00000100: 8a19 013e 3776 703d 88a2 083d c468 2d3d
00000110: b4c0 1a3d 09b9 163d 9422 f0bd f1b0 d23c
00000120: cdec 92bd 9a51 eb3d 13fb d13d 0bba d2ba
00000130: e81f 65bd a48e b0bc fd53 54bd 1eee 6c3d
00000140: 7997 223c 13b0 5dbd fed2 fd3d 0278 b4bd
00000150: 8237 d1bd 8467 cd3c ec06 a53d 05e1 373c
00000160: 3c94 a33b 88bf 893d 68ec dcbd 6f56 393d
00000170: 79fb d9bb c233 a7bc a2fb 963d 2242 09bd
00000180: 932a f63b 7552 433d 5b94 c63d fd98 953c
0.027649151 0.05710416 0.007817691 -0.049640846 -0.04285357 -0.001533059 -0.0040428205 0.23221284
0.11847705 -0.011564875 0.008198548 -0.00559256 0.13897276 0.046934173 -0.017238267 0.087448426
0.11785335 -0.030482039 -0.020883832 0.11206533 -0.039911576 -0.020690197 -0.12296117 0.012665199
-0.041137896 0.023598336 -0.11343542 0.031500235 -0.012696828 -0.053499617 -0.091372274 0.086715825
-0.103452556 0.0008070636 0.0658754 -0.048517533 -0.12046215 0.11981963 0.06122032 -0.07931855
0.057121754 -0.0028248918 0.17098305 0.15481965 0.09522604 0.038420543 -0.022418907 -0.10068806
0.020774564 0.053798705 0.11021249 -0.049392737 -0.14040647 -0.0017188631 0.016268408 -0.0042752437
0.052629262 -0.09411443 -0.056934956 -0.10957427 -0.03258019 -0.021501532 0.0073179207 -0.037663676
0.12607399 0.05870649 0.033358127 0.04233624 0.037781432 0.036797557 -0.11725345 0.025719138
-0.071740724 0.11490174 0.10252967 -0.0016077174 -0.05593863 -0.021552391 -0.05183791 0.057844274
0.009923809 -0.054122996 0.12393759 -0.08811952 -0.102156654 0.025073774 0.08057961 0.011223082
0.004992036 0.06725985 -0.107872784 0.045248445 -0.0066522923 -0.020410422 0.07372214 -0.033510335
0.0075123995 0.04768606 0.09696265 0.018261427

layer1.2.weight f4 [10, 100]
00000000: e76a 9cbe 3aee 4b3e e4fb 88bd cc56 2a3e
00000010: 3109 863c 34df 0c3e def3 d33e b210 0b3e
00000020: 19e6 3e3e 6b68 323e df26 523e 9d5c 2fbe
00000030: 8eed 6c3e 1dbc 0c3e 4438 ccbb 7336 8abe
00000040: 7a26 4a3c 5bdc 813e ddc9 763e 7f6e 163e
00000050: 4f53 983e c4b2 8f3d bd5b 2bbe f042 1ebe
00000060: 2d45 a93d 69ff 6abe 38ee 45bd 2728 38be
00000070: 37ca 70be 35fa 91be d932 90bd 4e5c 1d3e
00000080: a567 debd a1d9 a6be 5fc2 863d 787f 6bbd
00000090: 50a7 1bbe 885e 8b3c 21d7 dabc ec48 5dbd
000000a0: b6fe 86bd 9284 403e 9aa9 79bd 25ab 7f3e
000000b0: 909d 653e 076b f33c 5509 48bd efb3 afbe
000000c0: 3ce2 853e b3cf b93c 9c6d 6abc c619 22bb
000000d0: 3b4b 733e bfd8 563d 9a9d 723d 6a67 af3d
000000e0: 043b 963c a201 54be 4032 78bd 18d3 5b3e
000000f0: 37b6 d93b 81e1 12be b892 31be 573e 563e
00000100: 9441 c5bd a2f8 02bb 3e85 bd3d 97a0 423e
00000110: a29f 23be ad6d 7a3d 90f3 5abc de75 4a3e
00000120: ca69 433e 80f8 973e 4547 333c 4d31 893e
00000130: 20f9 603e ab46 493e c31e 2c3e 17e1 fa3c
00000140: b346 3dbe 50ad 173e 8f4a 843c 6822 f2bd
00000150: 05a8 3abe 07f9 213d dcc8 20be 3656 83be
00000160: f3c6 6b3e 6f5e 353e e9fd 4f3d 71bb 983d
00000170: 9c7d 203c dbe4 8bbe 6774 c83d 9a82 4b3d
00000180: 04e8 e33c ef5a b43b ef62 66be dea1 723d
00000190: a065 ac3d 7a0c 5dbc d29e 4c3e 3f29 e43d
000001a0: 6c17 bbbe ef23 ccbb a8d2 37be 2187 73bd
000001b0: 3b87 833c f914 0cbe b318 57bd dc7e 71be
000001c0: 6108 ebbd 4fe9 fd3d 1f68 9b3e 9329 283d
000001d0: 4b0b 1f3e 2b08 833d 598b 5a3d 503d febc
000001e0: 12d7 613d d8b2 4cbe 83d3 a83d aa50 a3bd
000001f0: 81ef 2dbd 042e ccbe 2b57 893e 5997 8c3d
00000200: c992 90be db31 253e 3625 fe3d bae9 63be
00000210: d5dc 5dbe f87a b83d 84e7 2a3d 8eef ca3d
00000220: 00ac dcbd 3d7b a63d d8be d0bc 975b 503e
00000230: 6ff8 ce3c bae8 1dbe a929 1d3d befd 7dbe
00000240: 9a31 8dbe 7b8e 83bc 9e1c e3bc 4cfd 1fbe
00000250: d78d 103d 50fa dd3d 6583 3abe 3e89 8abe
00000260: 9073 95bd 9b87 e1bd 0b0d 8bbd ab62 f33c
00000270: 84f9 63be 9525 01be 52ec 69bc 3c15 673c
00000280: 9338 a33d 58d6 693e a466 c6bd dc92 e13d
00000290: 967b a7bb 09cb 17bd 2345 dd3d da62 45be
000002a0: bc2b 6fbe 7842 c43d f0d9 e93d 2e07 e9bd
000002b0: 6d37 99bd de6b b9bd 6fc2 68be 4009 7d3e
000002c0: 18d4 40be ff15 09bd fa0f 4c3e 72a4 113e
000002d0: e985 563e 04ac f8bd 1284 b6bd 04a8 86be
000002e0: 96af 4abe 0e50 8d3e 1a15 91be c351 133e
000002f0: e5eb ab3d e5a6 f4bc 51e4 793e 5ee5 493d
00000300: d7f9 0f3e daab 5dbb 72b3 86be 8e7f 933c
00000310: 83ab a03e 2767 73be a98d 083e 4a81 3a3e
00000320: 2ab3 24ba ccc3 63bd 815b 3fbd d5c3 4e3d
00000330: c824 1bbb 9761 163c 45bc 3b3e 95bf 9c3e
00000340: 39d8 4b3d f0b3 cabd f810 3ebe 81e9 393e
00000350: 4971 41bd b0b6 d13d f292 413e f144 3a3e
00000360: 075f 7a3d b431 02bd 433e 0c3e 0526 f63d
00000370: 30f4 85bd f58e 003d 3306 0abd 364b 11bd
00000380: 8f82 4fbe 7a56 073e 60a0 c1bd 6c5e 3e3d
00000390: e333 7a3c d66b 25be f71a 903d b56b b6bd
000003a0: 6e39 8ebd 0597 113d 41a6 72be 0361 5fbe
000003b0: ad36 583e efb4 15be d934 64be 9c2c 03be
000003c0: a96f 8e3d 977e b63d 9cd0 5c3e f166 c9bd
000003d0: 77ac a1be a252 0fbe fed3 1cbe 24a1 9abe
000003e0: 3631 ee3d 0406 8f3e b48c 6c3e b612 583d
000003f0: 4753 e0bd a7d9 103e c816 df3a 7a4a 813d
-0.3055031 0.19915095 -0.06688669 0.16634673 0.016361805 0.1375702 0.41396993 0.13580588
0.18642463 0.17422645 0.2052264 -0.17125173 0.23137495 0.13743635 -0.0062322933 -0.26994666
0.012338275 0.2536343 0.24100442 0.14690588 0.2975106 0.07016519 -0.16734214 -0.15455222
0.08265147 -0.22948994 -0.048322886 -0.17984067 -0.23514639 -0.28511205 -0.070409484 0.15367243
-0.108596124 -0.32587913 0.06580042 -0.05749461 -0.15200543 0.01701285 -0.02671391 -0.05402462
-0.06591551 0.18800572 -0.06095276 0.2496763 0.22423387 0.02971412 -0.048837025 -0.34316966
0.26149166 0.022682047 -0.0143083595 -0.00247346 0.23759167 0.0524528 0.05923233 0.085646465
0.018338688 -0.20703748 -0.060594797 0.21467245 0.006644036 -0.14343835 -0.17341125 0.20922218
-0.09631649 -0.0019984622 0.092539296 0.19006573 -0.15978864 0.06113975 -0.013363734 0.19771525
0.19083324 0.29681778 0.010942285 0.26795426 0.21970034 0.19655864 0.1680861 0.03062491
-0.18484001 0.14812207 0.016148834 -0.11822969 -0.18228157 0.03954413 -0.15701622 -0.2565171
0.23025112 0.17711805 0.050779257 0.074576266 0.009795573 -0.2732304 0.09787827 0.0496851
0.027820595 0.005504004 -0.22498678 0.0592364 0.08417821 -0.013491744 0.1998246 0.111406796
-0.36541307 -0.0062298696 -0.17951453 -0.05945504 0.016055694 -0.13679875 -0.05251379 -0.2358355
-0.114762075 0.12398016 0.30352876 0.041055273 0.15531652 0.06398042 0.05335555 -0.031035095
0.055136748 -0.19990098 0.08243468 -0.0797437 -0.042464737 -0.39878857 0.26824316 0.06864805
-0.28236988 0.161323 0.12409441 -0.22257128 -0.21666272 0.090078294 0.041724697 0.09908973
-0.10774994 0.081289746 -0.025481626 0.20347439 0.025264947 -0.1542081 0.03836981 -0.24803826
-0.27576905 -0.01605915 -0.027723607 -0.15623969 0.03529152 0.10838759 -0.18214186 -0.27057832
-0.072974324 -0.11012193 -0.06789597 0.029710134 -0.22263151 -0.12611993 -0.014277535 0.014104184
0.07969775 0.22835672 -0.09687546 0.11014339 -0.005111168 -0.037058864 0.108042024 -0.1927599
-0.23356527 0.095829904 0.114185214 -0.113783225 -0.07481275 -0.09053777 -0.2273042 0.2471056
-0.18830907 -0.033468243 0.1992797 0.14222887 0.2094952 -0.121421844 -0.08911909 -0.2630006
-0.19793543 0.2760014 -0.28336412 0.14386658 0.08394603 -0.029864738 0.24403502 0.049291007
0.1406015 -0.0033824355 -0.2630878 0.018005159 0.31380853 -0.23769818 0.13335289 0.18213382
-0.0006282801 -0.05560665 -0.046718124 0.05047973 -0.0023673046 0.009178541 0.18333538 0.30614915
0.049766753 -0.098976016 -0.1856116 0.18155481 -0.047227178 0.10239923 0.18903711 0.18190362
0.06112578 -0.03178568 0.13695626 0.120189704 -0.06540716 0.031386334 -0.03369732 -0.035472117
-0.20264648 0.13216582 -0.09454417 0.046476766 0.01527116 -0.16154417 0.07036393 -0.08907262
-0.069445476 0.035544414 -0.23696233 -0.21814351 0.21114607 -0.14619802 -0.22285785 -0.12809986
0.06954891 0.08910864 0.21563953 -0.09834088 -0.31576893 -0.13996366 -0.15315244 -0.30201066
0.1163048 0.27934277 0.23100549 0.05275222 -0.10953384 0.14145528 0.0017020339 0.063130334

layer1.2.bias f4 [10]
00000000: b810 833d d02c 65bd 90b0 ce3d 9e57 873d
00000010: a0f1 3ebe ffe3 073f 8bb9 07bd 5fb4 9ebd
00000020: 79a0 4fbe 2e8b 6ebe
0.06399673 -0.05595094 0.100922704 0.066085085 -0.1864686 0.5308227 -0.033135932 -0.07749247
-0.20276059 -0.2329528
