LeNet/model.pt (torch, 249967 bytes, 10 tensors)

layer1.0.weight f4 [6, 1, 5, 5]
0.03510675 0.08982415 0.21462633 0.2839893 0.29582593 0.23470686 0.2812301 0.25791714
0.18177384 0.299737 0.27964568 -0.07074997 0.25472018 0.19716023 0.29878813 0.30139145
0.23151594 0.021128986 0.055928767 0.30015728 0.26056668 0.008938798 0.047022685 0.08647786
0.04664116 0.05336198 0.055422608 -0.08546587 -0.07873132 0.06193659 -0.05104274 -0.08423767
-0.064576775 0.10837783 0.12814124 -0.16048478 0.15418023 0.088316225 -0.1943351 0.15465958
0.093140945 0.05934716 0.16241002 -0.036640193 -0.04886827 0.059438445 -0.025022537 -0.10485966
-0.17535609 -0.21136257 0.03269241 0.12257142 0.24589604 0.040528804 -0.083630525 0.13532127
-0.066707425 0.24669787 0.18440093 -0.06641061 0.007869847 0.17208369 0.042380463 0.042244993
0.023697663 -0.13909522 0.09217792 0.09163939 0.028831257 0.22181775 0.11485489 0.08592539
0.18777017 0.104651324 0.0242989 0.17371523 -0.13384777 -0.031842902 -0.10880563 -0.14419852
-0.0028651 0.14620455 0.121289946 -0.06664774 -0.02622188 -0.061485533 -0.016442532 -0.17425548
-0.12314539 0.04584791 -0.03720877 -0.12762949 0.011637911 -0.09419593 -0.018016275 0.05339448
-0.14317115 -0.19746092 -0.14825597 -0.09592271 0.099657916 -0.14383724 -0.10476233 0.07373399
0.0017369639 0.057175208 0.03480872 -0.098286495 -0.021698546 -0.12279558 -0.1109553 -0.07133921
-0.20214657 0.18529996 0.09457969 -0.021462329 0.030385097 -0.10150437 0.032397997 -0.038953066
0.17289141 -0.098395474 0.028643232 0.05503024 -0.006423938 0.14016362 0.2819427 0.29873264
0.30871156 0.11277161 0.2236768 0.019199068 0.20671606 0.22878969 0.30030158 0.06206506
0.28304896 0.12388919 0.19472902 -0.03794901 0.116418116 -0.031934142 0.084867485 0.10933644
-0.020749006 0.11367271 0.25900453 0.24107084 0.05536871 0.14709795
00000000: 18cc 0f3d b9f5 b73d 01c7 5b3e 0c67 913e
00000010: 7f76 973e ff56 703e 64fd 8f3e b70d 843e
00000020: ec22 3a3e 2177 993e b82d 8f3e 5ce5 90bd
00000030: af6a 823e 5fe4 493e c2fa 983e fb4f 9a3e
00000040: 8412 6d3e b216 ad3c 9015 653d 37ae 993e
00000050: ff68 853e 0974 123c dc9a 403d 4e1b b13d
00000060: cd0a 3f3d 1792 5a3d d102 633d bb08 afbd
00000070: e33d a1bd 39b1 7d3d 3112 51bd cd84 acbd
00000080: d440 84bd 32f5 dd3d 7537 033e 1f56 24be
00000090: 6ce1 1d3e 23df b43d c8ff 46be 155f 1e3e
000000a0: aec0 be3d 0216 733d d04e 263e 0714 16bd
000000b0: 182a 48bd ba75 733d 10fc ccbc a9c0 d6bd
000000c0: 8c90 33be 6e6f 58be 7ae8 053d ba06 fb3d
000000d0: 2ccc 7b3e 8801 263d 7b46 abbd a991 0a3e
000000e0: e79d 88bd 5e9e 7c3e 99d3 3c3e 4902 88bd
000000f0: 88f0 003c b536 303e 2397 2d3d 1609 2d3d
00000100: 9a21 c23c fa6e 0ebe c7c7 bc3d 6fad bb3d
00000110: 872f ec3c 3124 633e 0a39 eb3d a7f9 af3d
00000120: d346 403e 6f53 d63d 7d0e c73c 68e2 313e
00000130: 640f 09be b46d 02bd 7cd5 debd c7a8 13be
00000140: 67c4 3bbb a5b6 153e dd66 f83d 9c7e 88bd
00000150: 45cf d6bc 41d8 7bbd 7db2 86bc 0770 32be
00000160: a633 fcbd 05cb 3b3d 3968 18bd 4eb1 02be
00000170: f0ac 3e3c cce9 c0bd de96 93bc 2cb4 5a3d
00000180: 759b 12be 3233 4abe 6ad0 17be 2073 c4bd
00000190: 7319 cc3d 124a 13be a28d d6bd d901 973d
000001a0: d6aa e33a 8d30 6a3d 9793 0e3d 6e4a c9bd
000001b0: 26c1 b1bc 407c fbbd 883c e3bd 4b1a 92bd
000001c0: 83ff 4ebe 46bf 3d3e ffb2 c13d c4d1 afbc
000001d0: 2bea f83c 86e1 cfbd c3b3 043d 408d 1fbd
000001e0: 720a 313e 9183 c9bd 36a5 ea3c 6467 613d
000001f0: e67f d2bb 0d87 0f3e cb5a 903e 7cf3 983e
00000200: 710f 9e3e cdf4 e63d 880b 653e 5d47 9d3c
00000210: 60ad 533e d847 6a3e 21c1 993e ef37 7e3d
00000220: cbeb 903e 9eb9 fd3d 0b67 473e 6c70 1bbd
00000230: 9f6c ee3d 60cd 02bd 01cf ad3d c9eb df3d
00000240: d2f9 a9bc 3dcd e83d 3e9c 843e 46db 763e
00000250: 4dca 623d d8a0 163e

layer1.0.bias f4 [6]
4.351882e-05 0.061556127 -0.002572578 -0.18736064 0.20133619 0.16800666
00000000: fa87 3638 4722 7c3d b298 28bb 78db 3fbe
00000010: 132b 4e3e f009 2c3e

layer1.3.weight f4 [16, 6, 5, 5]
0.030402737 0.030306464 0.07807124 -0.008474912 0.00957663 0.026290348 -0.016367171 0.015146955
-0.06339704 0.09172985 -0.09546274 -0.06655164 0.055692647 0.011601041 -0.05040705 -0.049299918
0.013044644 0.057146363 0.03465419 0.08805035 -0.016406782 -0.0027114693 -0.048239525 -0.0647311
0.059059072 -0.04126618 -0.032227803 -0.048258398 -0.022863291 -0.0044995085 0.038759742 -0.077022016
0.008152068 -0.03744528 -0.06024039 -0.050864358 -0.01303463 -0.02192045 0.031202113 -0.06356185
-0.072352365 0.03517242 0.030849833 -0.019938355 0.0012662025 -0.047342993 0.022193072 -0.010108129
0.04633044 -0.07404331 -0.08111025 -0.07509993 -0.037769902 0.025544288 0.023855207 0.049573716
0.048815716 0.061496835 -0.02218545 0.055494595 0.005736331 0.05498901 -0.058693975 0.009355802
-0.05105005 0.023729783 -0.06684275 0.014535953 0.017810104 7.9885576e-05 0.03862695 0.045043338
-0.040025175 0.0059879636 0.088430725 -0.006404128 -0.015620331 -0.07574615 0.037577536 -0.01833085
0.0007579777 0.016543493 -0.077889085 -0.042181984 -0.006594136 -0.018661024 -0.044086237 -0.0012467314
-0.07847393 -0.033676267 0.058598198 -0.017006453 -0.008247282 -0.02636816 0.019074667 -0.08017784
-0.031334046 -0.07634651 0.043851588 0.046132088 0.08603744 -0.014896667 -0.018411156 0.06064312
0.080112875 -0.02865293 -0.004203151 -0.010705501 0.044164993 -0.03638771 -0.0012894098 0.082262784
-0.017956454 -0.03470496 -0.0115953395 0.053497825 0.051993687 -0.048105676 0.045924205 0.07810325
-0.06243168 -0.00081254327 0.0023488982 0.051452585 0.04556319 -0.04353855 0.0387656 0.038499027
0.02458113 0.059405126 0.037791163 -0.078669 0.053095073 -2.227648e-05 0.05590833 -0.033657696
-0.06689155 -0.06706233 0.03931885 -0.06465912 0.056522783 0.0320032 0.05695707 -0.02845012
-0.059193157 0.029054498 0.055087663 -0.075333655 -0.05833859 0.08200971 0.051658385 -0.004611529
-0.022853607 0.05997996 -0.03430097 0.005308442 -0.004715318 0.0032644356 0.0332212 -0.041176334
-0.03709192 0.079918526 -0.045368776 -0.052143913 -0.067392975 -0.022182219 0.07650245 0.07571249
0.009406859 -0.038404897 0.011112819 -0.045189805 -0.057923943 -0.017282864 0.047176402 -0.026469374
-0.0460731 0.027836 0.02772079 -0.060705088 -0.04442689 -0.050501008 0.070945665 -0.038699716
-0.05949291 0.046335924 0.06549084 0.0022089276 0.013647395 -0.008881162 0.0009841255 0.06708356
0.008155267 0.043097112 0.008861292 -0.015531043 0.036265194 -0.023019988 -0.03388348 0.06742668
-0.04867863 -0.0055395523 0.007811699 -0.060364198 0.005633079 -0.012236129 0.054240305 0.07777651
0.062077872 -0.07904095 -0.052491482 -0.057885196 0.018737162 -0.029679576 0.07553839 0.06498353
-0.031206433 0.046678677 -0.02842953 -0.06614356 0.029830195 0.0711203 -0.072768435 0.071265064
-0.07559416 -0.021307355 -0.034682482 0.014083829 -0.06884345 0.029067365 0.03455441 0.015229458
-0.07603318 0.022954509 -0.06485407 0.016627852 0.06720856 -0.07376931 -0.05473284 -0.019035807
-0.03532095 -0.050193932 -0.029163511 -0.052517682 0.056026313 -0.038541425 -0.079909876 0.019037377
-0.030253218 0.03416466 -0.011936757 -0.058305778 0.0706835 -0.03781288 -0.003785572 0.061544895
00000000: 290f f93c 4345 f83c d0e3 9f3d 5bda 0abc
00000010: 4ce7 1c3c db5e d73c 7214 86bc ef2a 783c
00000020: 4fd6 81bd dcdc bb3d f881 c3bd 3a4c 88bd
00000030: f91d 643d 4b12 3e3c 9f77 4ebd b6ee 49bd
00000040: 34b9 553c 4e12 6a3d 8df1 0d3d be53 b43d
00000050: 8467 86bc e8b2 31bb cf96 45bd bd91 84bd
00000060: ede7 713d ba06 29bd 4d01 04bd 99aa 45bd
00000070: cc4b bbbc 9d70 93bb 89c2 1e3d b8bd 9dbd
00000080: 4090 053c 3960 19bd a1be 76bd 2557 50bd
00000090: 338f 55bc 8492 b3bc 939b ff3c b72c 82bd
000000a0: 7a2d 94bd f510 103d cab8 fc3c c355 a3bc
000000b0: b5f6 a53a baea 41bd 3fce b53c 919c 25bc
000000c0: fdc4 3d3d 05a4 97bd 211d a6bd fecd 99bd
000000d0: 9db4 1abd 4142 d13c ff6b c33c cf0d 4b3d
000000e0: fdf2 473d 1be4 7b3d 43be b5bc 4d4e 633d
000000f0: d5f7 bb3b 283c 613d 1869 70bd 1449 193c
00000100: db19 51bd f664 c23c dae4 88bd 3528 6e3c
00000110: 7fe6 913c 3e88 a738 4b37 1e3d 5d7f 383d
00000120: 70f1 23bd ae36 c43b 2b1b b53d b8d9 d1bb
00000130: 6bec 7fbc cc20 9bbd e7ea 193d 942a 96bc
00000140: 06b3 463a 3886 873c 5084 9fbd 04c7 2cbd
00000150: 9f13 d8bb 01df 98bc c593 34bd 5d69 a3ba
00000160: f1b6 a0bd 20f0 09bd aa04 703d 1e51 8bbc
00000170: 9c1f 07bc 0a02 d8bc 7a42 9c3c 4834 a4bd
00000180: 2158 00bd 8f5b 9cbd b99d 333d 00f5 3c3d
00000190: 6634 b03d 2611 74bc fed2 96bc ec64 783d
000001a0: 3812 a43d 8db9 eabc 96ba 89bb 2066 2fbc
000001b0: 5ae6 343d 480b 15bd 6a01 a9ba 6479 a83d
000001c0: 6a19 93bc ca26 0ebd 61fa 3dbc 8920 5b3d
000001d0: 55f7 543d 750a 45bd 051b 3c3d 99f4 9f3d
000001e0: 5cb8 7fbd db00 55ba f9ef 193b f2bf 523d
000001f0: 78a0 3a3d 7b55 32bd aec8 1e3d 28b1 1d3d
00000200: 5e5e c93c ca52 733d e8ca 1a3d 361d a1bd
00000210: 387a 593d 60de bab7 2200 653d a7dc 09bd
00000220: 70fe 88bd fa57 89bd cd0c 213d 006c 84bd
00000230: 6f84 673d ca15 033d d14b 693d 3a10 e9bc
00000240: 8674 72bd b303 ee3c 9aa3 613d 8848 9abd
00000250: 72f4 6ebd b5f4 a73d be97 533d 4f1c 97bb
00000260: 7d37 bbbc 8cad 753d 2d7f 0cbd 70f2 ad3b
00000270: f482 9abb 24f0 553b f412 083d 84a8 28bd
00000280: b2ed 17bd 53ac a33d 9cd4 39bd db94 55bd
00000290: 5405 8abd 7cb7 b5bc 51ad 9c3d 260f 9b3d
000002a0: 3a1f 1a3c 744e 1dbd 8b12 363c f218 39bd
000002b0: a841 6dbd cb94 8dbc 0b3c 413d 4dd6 d8bc
000002c0: 26b7 3cbd 5308 e43c b616 e33c e6a5 78bd
000002d0: f8f8 35bd 25da 4ebd f64b 913d 9883 1ebd
000002e0: d6ae 73bd bdca 3d3d 1020 863d a8c3 103b
000002f0: 5399 5f3c 4b82 11bc c6fd 803a 1b63 893d
00000300: ab9d 053c 9986 303d f42e 113c ea75 7ebc
00000310: d08a 143d 6a94 bcbc 67c9 0abd 0017 8a3d
00000320: 3e63 47bd 2285 b5bb 48f9 ff3b 7340 77bd
00000330: b195 b83b 0b7a 48bc 152b 5e3d 4a49 9f3d
00000340: 5e45 7e3d 39e0 a1bd 4f01 57bd 0719 6dbd
00000350: ad7e 993c 9522 f3bc dfb3 9a3d 1616 853d
00000360: a2a4 ffbc 2432 3f3d 0ce5 e8bc 4676 87bd
00000370: 745e f43c 85a7 913d 9e07 95bd 6bf3 913d
00000380: 1cd1 9abd c38c aebc 380f 0ebd dcbf 663c
00000390: cbfd 8cbd af1e ee3c ed88 0d3d fa84 793c
000003a0: 49b7 9bbd 180b bc3c 36d2 84bd 2237 883c
000003b0: a4a4 893d 5d14 97bd 8b2f 60bd fbf0 9bbc
000003c0: b3ac 10bd 2798 4dbd 51e8 eebc c81c 57bd
000003d0: d97b 653d 9ddd 1dbd caa7 a3bd 46f4 9b3c
000003e0: 99d5 f7bc 3ef0 0b3d 6392 43bc 0ad2 6ebd
000003f0: 83c2 903d aee1 1abd 5c17 78bb 8016 7c3d

layer1.3.bias f4 [16]
0.054795142 0.017412758 0.023096189 -0.08072344 0.071639605 0.052162852 -0.007400428 -0.027264541
0.0906941 -0.06798056 -0.022831881 -0.01624873 0.065032594 0.011604895 0.00040413908 -0.045043092
00000000: df70 603d 33a5 8e3c 3834 bd3c 5552 a5bd
00000010: c9b7 923d b7a8 553d 4a7f f2bb e359 dfbc
00000020: d4bd b93d 6439 8bbd ed09 bbbc 0e1c 85bc
00000030: cf2f 853d 7522 3e3c a1e2 d339 1b7f 38bd

layer1.7.weight f4 [120, 400]
-0.046678383 -0.045137864 0.015516203 -0.037576143 -0.04499585 0.00026348812 0.003996483 -0.0020483343
0.023168175 -0.011113239 -0.04960299 0.04492443 0.042529825 0.02211012 0.015344431 0.043239765
0.037517563 -0.0033379216 0.046006706 -0.035911936 0.010479062 0.01358775 0.038929142 -0.04588555
0.0018941646 -0.025429813 -0.01414914 -0.007858914 -0.038822185 0.043531198 0.0410189 -0.03805331
0.0031016546 -0.049151935 0.042192042 -0.034244716 -0.0013471132 0.042608596 0.032537792 0.049376514
0.026678847 -0.0497721 -0.0048010284 -0.007206939 -0.010031994 -0.04086989 -0.002797825 -0.02140062
-0.0147295 -0.028064348 -0.0028716512 0.04274178 -0.0395068 -0.03945144 0.03117844 -0.037505776
-0.031931926 -0.0154430345 0.01015126 -0.00235077 0.031275224 -0.016103186 -0.008024462 -0.007975616
0.03962298 -0.041068144 -0.006190844 -0.02762 -0.02421183 0.024947945 0.031512324 0.028073434
0.00045708567 0.009557612 0.049729984 -0.0016496389 -0.043468952 -0.049171776 0.042061694 -0.002379491
-0.019757967 0.003021344 0.03730069 -0.0050825053 0.036845967 0.0023723356 0.01764303 -0.03977961
0.028381562 -0.009105321 -0.0037334547 -0.018006494 -0.034931205 0.04418524 -0.03545552 -0.0506684
0.018410528 -0.01974136 0.009235966 -6.4902204e-05 0.007166217 -0.029945271 -0.03283368 0.0314573
0.024578463 0.039736904 -0.014816604 -0.033227883 0.003967262 -0.0012340945 -0.03269724 0.035466447
-0.04989706 -0.040803812 -0.013408363 0.018975692 -0.0057358467 -0.03707161 0.048652202 0.034297854
0.044504225 0.038308267 0.03996537 -0.027850032 -0.04064162 -0.0038289626 -0.026557278 -0.031473514
0.042922344 0.014020484 0.018113837 0.030118162 0.03161008 -0.03975548 0.014968576 -0.03692631
-0.006744123 -0.030450756 -0.008933295 0.027836097 0.037833642 -0.012934514 0.038125448 0.021100452
-0.03515739 0.025873214 0.03540906 0.010989005 -0.028422318 0.02985665 0.037601687 -0.036105424
-0.004881248 0.013701911 0.03978614 0.050326373 -0.043536372 0.04337591 -0.048089396 0.039479863
-0.049035437 0.015122501 -0.04877939 0.03025136 -0.007320259 0.018139971 -0.00271933 -0.0077228025
-0.012601457 -0.041256297 -0.006255209 0.042929757 -0.021152375 0.04923251 0.01829967 0.008921454
0.016098814 0.030153213 -0.036433093 0.00026855414 0.0047678947 -0.012455395 -0.038988482 -0.027106924
0.036994047 0.02910149 -0.03773068 0.033536475 0.027358206 0.025571061 0.024191743 0.029818099
0.019199057 -0.032812797 -0.007051709 -0.042873356 -0.04886186 0.0033146883 0.044455037 0.046052612
0.008608459 0.03823626 -0.0017935579 -0.006782553 -0.022049978 -0.018416954 -0.010583327 0.046015553
-0.04997096 0.047191262 -0.035887238 0.048760526 -0.038521115 -0.0017083581 -0.015737215 0.036113247
-0.039080366 -0.028795257 0.03013735 -0.040199436 0.024677366 -0.013385384 0.0072259633 -0.023092898
0.031198168 -0.003981234 -0.037942074 -0.0045722183 -0.030660275 -0.0142423995 -0.042053778 0.021863451
0.04210704 -0.030440504 0.031324793 -0.015586155 0.0008388974 -0.04732161 0.0016216774 -0.017274
-0.026474725 0.021148404 -0.0067648767 0.04493134 0.026889978 0.03266184 0.0019900391 -0.04012895
0.017222531 0.030705668 -0.034086116 0.0020017764 0.019324515 0.038605087 0.02396163 0.046230424
00000000: d531 3fbd 7be2 38bd ac37 7e3c 71e9 19bd
00000010: 924d 38bd c724 8a39 eef4 823b 593d 06bb
00000020: 2fcb bd3c 4e14 36bc 812c 4bbd ae02 383d
00000030: c133 2e3d 4820 b53c 3567 7b3c 2e1c 313d
00000040: 04ac 193d 08c1 5abb 8771 3c3d 6518 13bd
00000050: 5fb0 2b3c 279f 5e3c 2a74 1f3d 7df2 3bbd
00000060: 9e45 f83a 2f52 d0bc cbd1 67bc adc2 00bc
00000070: 0304 1fbd c54d 323d 6f03 283d cadd 1bbd
00000080: 2145 4b3b 8a53 49bd 90d1 2c3d 3044 0cbd
00000090: 9e91 b0ba 5a86 2e3d 5946 053d 073f 4a3d
000000a0: 998d da3c d4dd 4bbd f251 9dbb 3028 ecbb
000000b0: 3c5d 24bc 3067 27bd b75b 37bb 5a50 afbc
000000c0: 0054 71bc 34e7 e5bc 5032 3cbb 0112 2f3d
000000d0: e2d1 21bd d597 21bd ee69 ff3c a89f 19bd
000000e0: 0dcb 02bd c804 7dbc 7851 263c 600f 1abb
000000f0: 731a 003d d4ea 83bc 0879 03bc 28ac 02bc
00000100: b54b 223d 1237 28bd 90dc cabb 5743 e2bc
00000110: e357 c6bc a25f cc3c 1113 013d 42fa e53c
00000120: 00a5 ef39 8897 1c3c abb1 4b3d b238 d8ba
00000130: 800c 32bd 5868 49bd e248 2c3d 3cf1 1bbb
00000140: 76db a1bc be01 463b 9cc8 183d 258b a6bb
00000150: cceb 163d 3079 1b3b 1e88 903c f2ef 22bd
00000160: 7380 e83c 7c2e 15bc faac 74bb 5b82 93bc
00000170: 0614 0fbd 95fb 343d cf39 11bd ab89 4fbd
00000180: add1 963c a2b8 a1bc 7352 173c 1b1c 88b8
00000190: 96d2 ea3b c94f f5bc 9c7c 06bd 5fd9 003d
000001a0: c658 c93c 2ac3 223d 57c1 72bc f619 08bd
000001b0: ceff 813b 57c1 a1ba 8bed 05bd 4445 113d
000001c0: dc60 4cbd e621 27bd c0ae 5bbc e972 9b3c
000001d0: c5f3 bbbb 67d8 17bd 8847 473d e87b 0c3d
000001e0: 104a 363d 21e9 1c3d bab2 233d c025 e4bc
000001f0: d477 26bd 55ef 7abb a68e d9bc 5fea 00bd
00000200: 57cf 2f3d 2cb6 653c 7863 943c 5dba f63c
00000210: 9279 013d a4d6 22bd c23e 753c 0b40 17bd
00000220: cefd dcbb dd73 f9bc f45c 12bc 8708 e43c
00000230: 73f7 1a3d 49eb 53bc 6e29 1c3d dbda ac3c
00000240: 3201 10bd 10f4 d33c 1709 113d 3a0b 343c
00000250: ecd5 e8bc ef95 f43c 3a04 1a3d 48e3 13bd
00000260: e0f2 9fbb fb7d 603c cbf6 223d 0723 4e3d
00000270: 3253 32bd f0aa 313d 63f9 44bd a3b5 213d
00000280: 62d9 48bd 5ec4 773c e6cc 47bd b3d1 f73c
00000290: c9de efbb 479a 943c c936 32bb 900f fdbb
000002a0: 5776 4ebc 5dfc 28bd 7ff8 ccbb 1dd7 2f3d
000002b0: bf47 adbc 07a8 493d 31e9 953c 4a2b 123c
000002c0: a9e1 833c df03 f73c de3a 15bd bacc 8c39
000002d0: 003c 9c3b b711 4cbc 63b2 1fbd 570f debc
000002e0: 1287 173d 3f66 ee3c 7c8b 1abd 8b5d 093d
000002f0: 511e e03c 677a d13c c32d c63c 1645 f43c
00000300: 5747 9d3c b666 06bd 0612 e7bb f99b 2fbd
00000310: 6023 48bd 3e3b 593b 7c16 363d aaa1 3c3d
00000320: 7e0a 0d3c a09d 1c3d d115 ebba 2e40 debb
00000330: 28a2 b4bc 27df 96bc b165 2dbc ce7a 3c3d
00000340: 59ae 4cbd a04b 413d 7ffe 12bd 1eb9 473d
00000350: 51c8 1dbd fcea dfba 55eb 80bc 7ceb 133d
00000360: bc12 20bd 08e4 ebbc 9be2 f63c 2aa8 24bd
00000370: 3028 ca3c 5f4e 5bbc c6c7 ec3b 512d bdbc
00000380: 4d93 ff3c 0375 82bb 2669 1bbd 8cd2 95bb
00000390: 422b fbbc f458 69bc 9540 2cbd fb1a b33c
000003a0: 6e78 2c3d 5d5e f9bc 6d4e 003d 125d 7fbc
000003b0: 74e9 5b3a 4ed4 41bd 778e d43a 3482 8dbc
000003c0: 86e1 d8bc 6b3f ad3c e6ab ddbb ed09 383d
000003d0: 5f48 dc3c 6cc8 053d 516b 023b 415e 24bd
000003e0: 4416 8d3c 748a fb3c e29d 0bbd 3c30 033b
000003f0: 724e 9e3c 5e20 1e3d 2e4b c43c 1d5c 3d3d

layer1.7.bias f4 [120]
-0.01856585 -0.045439232 0.00047549958 0.0015454123 0.021632368 0.019054502 0.01547941 -0.017461807
0.033369515 -0.037230834 0.009179338 0.025152903 -0.0039845896 -0.031416934 0.047333676 0.045139086
0.02622972 -0.032048155 0.04512682 0.026946831 0.03502112 0.030591542 0.05329525 -0.026244637
0.016713982 0.019418959 0.0034872508 0.027889993 -0.034256313 -0.041333374 -0.0019531734 -0.03193459
-0.03181363 0.05591184 0.049367268 0.049805176 -0.028110756 0.021729868 0.038110845 0.014903646
-0.010753883 0.046695493 0.010895449 -0.009482392 0.018364558 0.007096991 -0.031843603 0.02531949
-0.024317954 -0.030613184 0.0197472 -0.006302698 0.06498001 -0.021115657 0.04071636 -0.023136165
0.010331683 0.012486704 -0.047591325 -0.049264725 -0.026493434 -0.034079697 0.042968515 0.03574485
0.0006126251 -0.035303947 0.011324118 -0.00991574 -0.008855312 0.032557487 -0.01777904 -0.02485258
-0.04438061 -0.009177438 -0.0069395807 0.008437286 0.031770166 -0.0065507004 0.035086334 0.035684712
0.022129526 0.032345388 -0.034124386 0.021996621 -0.0023008813 0.0016238851 -0.00845566 -0.012860151
-0.031675037 -0.031201556 0.014549574 0.049905464 0.031905618 0.013582036 -0.0346762 -0.024041116
-0.020467097 -0.045730796 -0.0099958405 -0.02447335 0.03340117 0.006737648 0.026339527 -0.0070744655
0.054849703 0.0017776162 0.037722915 -0.038404346 0.015570744 0.022285309 -0.037069604 0.03553205
-0.016916266 0.012214043 -0.018760324 -0.015142749 0.043783166 -0.026887571 -0.016791152 -0.04337112
00000000: 6917 98bc 7d1e 3abd 794c f939 6f8f ca3a
00000010: 5d36 b13c 3018 9c3c 5a9d 7d3c 100c 8fbc
00000020: 79ae 083d 5c7f 18bd ef64 163c 760d ce3c
00000030: 2991 82bb 0baf 00bd f5e0 413d c3e3 383d
00000040: b6df d63c ed44 03bd e7d6 383d 9abf dc3c
00000050: 4e72 0f3d 1d9b fa3c 1f4c 5a3d fefe d6bc
00000060: c3eb 883c 8214 9f3c 5c8a 643b 8e79 e43c
00000070: 5950 0cbd 2f4d 29bd d000 00bb d8cd 02bd
00000080: 024f 02bd d003 653d 5535 4a3d 8300 4c3d
00000090: 8748 e6bc d602 b23c 1e1a 1c3d 6c2e 743c
000000a0: 0e31 30bc c643 3f3d d382 323c 095c 1bbc
000000b0: 4571 963c e08d e83b 706e 02bd d26a cf3c
000000c0: 7236 c7bc 80c8 fabc e1c4 a13c dd86 cebb
000000d0: 3d14 853d befa acbc 33c6 263d 0e88 bdbc
000000e0: 3846 293c 0895 4c3c 1fef 42bd cfc9 49bd
000000f0: c208 d9bc 2797 0bbd c1ff 2f3d 3169 123d
00000100: 9398 203a df9a 10bd cb88 393c a175 22bc
00000110: df15 11bc 005b 053d 59a5 91bc a397 cbbc
00000120: 71c8 35bd f75c 16bc 6c65 e3bb 8b3c 0a3c
00000130: 6f21 023d 42a7 d6bb b0b6 0f3d 222a 123d
00000140: fb48 b53c 997c 043d 03c6 0bbd 4232 b43c
00000150: 62ca 16bb 8bd8 d43a 9c89 0abc 62b3 52bc
00000160: afbd 01bd 689a ffbc 5661 6e3c ac69 4c3d
00000170: 77af 023d 3087 5e3c a208 0ebd e0f1 c4bc
00000180: 9daa a7bc 3750 3bbd 98c5 23bc 567c c8bc
00000190: aacf 083d 7dc7 dc3b fec5 d73c ebd0 e7bb
000001a0: 15aa 603d e7fe e83a 5883 1a3d e04d 1dbd
000001b0: 6f1c 7f3c ae8f b63c 4cd6 17bd 0e8a 113d
000001c0: fb93 8abc 691d 483c 40af 99bc 4b19 78bc
000001d0: fa55 333d 5343 dcbc 998d 89bc eaa5 31bd

layer1.9.weight f4 [84, 120]
0.018666549 0.07925202 -0.04016707 -0.038653105 -0.025070973 0.068896905 -0.0116737215 -0.06664397
0.061935365 -0.06460672 0.040549025 -0.02188646 0.06632777 0.061234456 0.10174479 -0.054597355
0.06290728 -0.02137619 0.055686776 0.035315543 -0.054772865 -0.0644453 0.008241085 -0.015544184
-0.06785959 -0.08979522 0.05886225 -0.08425638 -0.012133952 0.07963582 -0.07281461 -0.019645087
0.050424654 0.05563452 0.027111694 0.0972687 -0.051926535 0.036016688 0.05982331 -0.049552497
-0.0055100746 -0.020559477 -0.068688236 0.084541835 0.06397985 -0.056239855 -0.048576366 0.10498762
0.013967345 -0.06714719 0.06658576 -0.009390962 0.096960984 -0.0009782887 -0.03862934 -0.06850906
-0.037923034 -0.06903588 0.037335016 -0.0011397004 -0.083073415 0.060763072 0.028556602 -0.04899559
-0.047132965 -0.032234266 -0.050174575 0.085225865 0.03151825 0.002239787 -0.0896024 -0.034056082
-0.012913549 0.07212336 0.02647961 -0.01920015 -0.090970546 0.076369025 0.07487405 -0.027402645
-0.057162568 -0.03543666 0.07469183 -0.06916295 0.02494544 -0.01933811 -0.06025086 0.046612393
-0.04133432 -0.033377398 0.100525506 -0.016188852 0.0025802061 0.057166453 -0.03759251 0.023287574
0.024342703 0.02571233 -0.056222036 0.054137863 -0.006105171 -0.01645217 -0.07213163 0.023848627
0.06122761 -0.022084681 0.0748487 -0.080138944 -0.030527633 0.04484119 -0.06142086 -0.033918522
-0.0543026 -0.067337446 0.019344455 0.073214754 -0.05210188 -0.01751777 -0.04903862 0.07596484
-0.030918106 0.034485813 0.0084282365 0.08402198 0.015055085 -0.037375275 0.030898863 -0.0064113513
-0.043622598 -0.09435686 0.069247045 -0.006301531 0.0734997 -0.06872378 -0.079914235 0.042243004
-0.048525333 0.052578423 -0.0023787355 0.0017885469 -0.04657121 -0.02450135 0.04679049 -0.0062013958
0.010982197 -0.04150016 -0.044633836 0.0061968877 -0.06801211 0.07592091 0.05210169 0.016861022
0.08350435 0.04419039 -0.090275 0.053943027 0.082267165 0.08480401 -0.013600016 -0.053752497
0.06307246 -0.073516525 0.003109416 0.028426701 0.08340259 -0.065825745 0.044589363 -0.040330075
0.07008109 -0.06058542 0.07584039 0.008289475 -0.01370439 0.04620849 -0.015341332 0.007957943
0.04883414 -0.0021869312 -0.039541695 -0.061905574 0.055863466 -0.028794007 0.091135204 0.03038887
-0.007610547 -0.057582196 -0.037462257 0.069642045 0.022816751 0.05323728 -0.057644926 -0.08425228
-0.067632556 -0.075241774 -0.033725806 -0.05060218 -0.056063063 0.00516637 -0.062043793 0.015118024
-0.05031236 -0.08935143 -0.077691644 -0.06873175 0.027997987 -0.077802256 0.0866674 -0.009242204
-0.042548098 0.025318934 -0.04315533 -0.03001982 0.051611952 0.082176134 -0.036524568 0.029491212
0.06439932 0.06183528 0.0040792823 0.01787613 0.0074206255 0.027179584 -0.05046467 -0.01349147
-0.032865323 -0.05877439 0.023653613 -2.3171306e-06 -0.080425486 0.010200971 0.06967946 0.06655484
-0.07440297 -0.073953524 0.046701353 -0.055031084 0.0062071495 -0.050449394 0.05788459 0.033649012
0.08298468 -0.05821711 -0.032462247 0.041739274 -0.041693944 -0.055710047 -0.027234413 0.057366237
0.049704775 -0.050642874 -0.030316278 -0.011891022 0.06896868 0.008506175 0.04721134 -0.07252907
00000000: 97ea 983c e24e a23d 3a86 24bd b852 1ebd
00000010: a461 cdbc d219 8d3d 2343 3fbc a27c 88bd
00000020: f0af 7d3d 8750 84bd bc16 263d 3c4b b3bc
00000030: dbd6 873d fbd0 7a3d 935f d03d 7aa1 5fbd
00000040: 88d5 803d 1f1d afbc d117 643d 08a7 103d
00000050: 8359 60bd e6fb 83bd 9e05 073c 08ad 7ebc
00000060: f8f9 8abd 8ee6 b7bd 8b19 713d 9c8e acbd
00000070: 7ccd 46bc 1b18 a33d d41f 95bd bcee a0bc
00000080: 158a 4e3d 06e1 633d 5819 de3c d034 c73d
00000090: ebb0 54bd 3c86 133d 4909 753d 8ff7 4abd
000000a0: db8d b4bb 596c a8bc 6bac 8cbd 4524 ad3d
000000b0: de07 833d c35b 66bd 03f8 46bd c003 d73d
000000c0: 4ad7 643c 7784 89bd 1d5e 883d 8ddc 19bc
000000d0: 7b93 c63d ec39 80ba cc39 1ebd 7a4e 8cbd
000000e0: 2f55 1bbd af62 8dbd 9aec 183d 0062 95ba
000000f0: 6522 aabd b3e2 783d 89ef e93c 9aaf 48bd
00000100: 7f0e 41bd 1408 04bd db83 4dbd e68a ae3d
00000110: 4819 013d 64c9 123b 7781 b7bd 647e 0bbd
00000120: 5a93 53bc 6ab5 933d c4eb d83c a249 9dbc
00000130: c44e babd 5d67 9c3d 9157 993d 837b e0bc
00000140: 4c23 6abd 0826 11bd 08f8 983d 4ea5 8dbd
00000150: 615a cc3c f56a 9ebc 9bc9 76bd a3ec 3e3d
00000160: 2d4e 29bd bdb6 08bd 51e0 cd3d 7c9e 84bc
00000170: ad18 293b 5f27 6a3d 9bfa 19bd 95c5 be3c
00000180: 596a c73c aaa2 d23c 1449 66bd aabf 5d3d
00000190: e30d c8bb b4c6 86bc bfb9 93bd 325e c33c
000001a0: cdc9 7a3d efea b4bc 464a 993d e31f a4bd
000001b0: 1615 fabc 65ab 373d 7194 7bbd 26ee 0abd
000001c0: 676c 5ebd 37e8 89bd 4378 9e3c 9ef1 953d
000001d0: c868 55bd 6d81 8fbc b8dc 48bd 7493 9b3d
000001e0: f847 fdbc ff40 0d3d 9616 0a3c b713 ac3d
000001f0: 9aa9 763c d116 19bd 9d1f fd3c 5016 d2bb
00000200: 9cad 32bd 2b3e c1bd 65d1 8d3d 137d cebb
00000210: 0387 963d 0ebf 8cbd 13aa a3bd 0007 2d3d
00000220: 80c2 46bd 795c 573d 8fe4 1bbb ad6d ea3a
00000230: 74c1 3ebd 0eb7 c8bc 63a7 3f3d 1435 cbbb
00000240: acee 333c 12fc 29bd f8d1 36bd 430f cb3b
00000250: ef49 8bbd 6c7c 9b3d 9568 553d 2020 8a3c
00000260: 5404 ab3d fb00 353d 19e2 b8bd 5df3 5c3d
00000270: b07b a83d baad ad3d 9ad2 5ebc 942b 5cbd
00000280: 222c 813d d58f 96bd 58c7 4b3b 1ddf e83c
00000290: face aa3d a6cf 86bd 56a3 363d 2631 25bd
000002a0: ad86 8f3d 6b28 78bd 3552 9b3d 94d0 073c
000002b0: 6188 60bc 1d45 3d3d 365a 7bbc 0862 023c
000002c0: 4f06 483d 9e52 0fbb 79f6 21bd b390 7dbd
000002d0: 17d1 643d 69e1 ebbc 18a5 ba3d 14f2 f83c
000002e0: e561 f9bb 4fdb 6bbd 0672 19bd 7da0 8e3d
000002f0: 32ea ba3c 560f 5a3d 161d 6cbd 768c acbd
00000300: f082 8abd 5c18 9abd 1224 0abd 3b44 4fbd
00000310: 62a2 65bd a74a a93b a221 7ebd 97b1 773c
00000320: 5514 4ebd e2fd b6bd cc1c 9fbd 3bc3 8cbd
00000330: 095c e53c ca56 9fbd ae7e b13d 9d6c 17bc
00000340: ea46 2ebd a769 cf3c a5c3 30bd 20ec f5bc
00000350: 0e67 533d f64b a83d c99a 15bd 8e97 f13c
00000360: cae3 833d fe46 7d3d 80ab 853b f670 923c
00000370: b828 f33b b8a7 de3c 0bb4 4ebd 540b 5dbc
00000380: ca9d 06bd 6abd 70bd 39c5 c13c 0080 1bb6
00000390: 1eb6 a4bd f921 273c 1bb4 8e3d e74d 883d
000003a0: 9660 98bd f274 97bd eb49 3f3d 4668 61bd
000003b0: 5865 cb3b 06a4 4ebd 6418 6d3d 8cd3 093d
000003c0: dff3 a93d 1075 6ebd 22f7 04bd cdf6 2a3d
000003d0: 45c7 2abd 3830 64bd b41a dfbc dcf8 6a3d
000003e0: 3c97 4b3d e76e 4fbd d859 f8bc 90d2 42bc
000003f0: 743f 8d3d 7c5d 0b3c ae60 413d 1f8a 94bd

layer1.9.bias f4 [84]
-0.019763403 -0.022783976 -0.059231367 -0.048936404 0.026574068 0.112647966 -0.08313089 -0.030335477
0.027624812 -0.011709273 -0.06575757 0.041053146 -0.014076785 0.012275801 -0.023980938 -0.04229368
-0.05811392 -0.05715733 -0.061483625 0.016000312 -0.07662773 0.059548117 -0.0743609 0.02522774
-0.021018736 0.031962104 0.062313464 0.016605988 -0.028907336 0.06570189 0.01450236 0.06462114
-0.07571575 -0.046864547 0.109689206 -0.06402655 0.012969471 -0.022844635 -0.05311092 -0.0060380637
0.075208254 -0.050707098 -0.0047355345 -0.04633008 -0.005890685 0.04837503 -0.07880954 -0.08171422
0.0034467147 0.08975843 0.108158305 0.075254895 -0.06368471 -0.03360331 0.036243856 -0.08707033
0.014875516 0.0116328 -0.0016154051 -0.011772794 -0.009346613 0.060194407 -0.06395475 -0.03443935
-0.010374568 -0.05606718 -0.08990804 -0.06820295 -0.06932436 -0.015732624 0.038833294 -0.0034118295
-0.08243251 0.09606101 -0.045542043 0.06415775 0.0032117732 -0.052266125 -0.033259336 -0.084880374
-0.06002586 -0.072459675 0.058840033 -0.010125021
00000000: dce6 a1bc 76a5 babc 979c 72bd 8a71 48bd
00000010: dcb1 d93c fab3 e63d 8740 aabd 1b82 f8bc
00000020: 6e4d e23c 40d8 3fbc e8ab 86bd 5827 283d
00000030: 51a2 66bc 7120 493c ac73 c4bc 233c 2dbd
00000040: dd08 6ebd ce1d 6abd 41d6 7bbd 1613 833c
00000050: 00ef 9cbd bae8 733d 874a 98bd 68aa ce3c
00000060: 7c2f acbc b2ea 023d 673c 7f3d 4809 883c
00000070: 14cf ecbc b68e 863d 4e9b 6d3c 1758 843d
00000080: dc10 9bbd 0af5 3fbd bca4 e03d 5a20 83bd
00000090: e77d 543c ac24 bbbc d68a 59bd f3da c5bb
000000a0: c906 9a3d 3fb2 4fbd 8b2c 9bbb 9cc4 3dbd
000000b0: a606 c1bb e524 463d e566 a1bd c959 a7bd
000000c0: 47e2 613b 45d3 b73d 1a82 dd3d 3d1f 9a3d
000000d0: 216d 82bd a0a3 09bd 7074 143d ee51 b2bd
000000e0: 70b8 733c 8097 3e3c 00bc d3ba ade2 40bc
000000f0: 8922 19bc 698e 763d b5fa 82bd 4710 0dbd
00000100: 18fa 29bc b3a6 65bd b521 b8bd fdad 8bbd
00000110: eef9 8dbd b4e1 80bc a90f 1f3d 0099 5fbb
00000120: 60d2 a8bd a3bb c43d 4b8a 3abd 2365 833d
00000130: 9d7c 523b 0115 56bd f13a 08bd c3d5 adbd
00000140: addd 75bd bd65 94bd 3f02 713d 6be3 25bc

layer1.11.weight f4 [10, 84]
0.073291145 -0.018206324 -0.09019389 -0.05931262 -0.04091608 0.13546701 -0.0522156 -0.15150876
0.008681911 -0.078257464 -0.03271974 0.041635573 0.07539967 0.110549726 0.08719473 0.09748718
-0.09079012 0.016881332 -0.038155947 -0.060411826 -0.03777396 -0.15274234 -0.121023335 -0.020962618
-0.045551255 -0.051493574 0.08449739 0.058855053 -0.12720966 -0.01709705 -0.08481275 0.0455874
-0.10051165 0.002767779 0.1260832 0.00880456 -0.039477557 0.013405457 -0.05491421 -0.03449757
-0.052864876 0.03954008 0.05159045 0.052823275 -0.061909616 0.07777428 0.054943018 -0.0058976347
0.032082766 -0.0253345 0.1142449 0.04425925 -0.09437961 0.09012417 -0.03141706 0.010055298
-0.07091984 -0.033794098 -0.06321715 0.058011845 -0.046724163 0.080580026 -0.100582436 0.103420325
0.07431289 -0.05452454 -0.0047288886 0.0659395 0.04871582 -0.063535705 -0.08074178 0.020070083
-0.024508558 0.11532457 0.0538916 0.08294241 0.10759213 0.077441 -0.045791607 -0.10161393
-0.06717658 -0.074176215 -0.11291476 -0.112003304 0.076016255 -0.10415248 0.060702078 0.05415701
-0.053038288 0.25141317 -0.019296896 -0.0007259616 -0.09710405 0.08720485 -0.014491476 -0.10930871
0.012009639 0.16942096 0.07897534 0.1285414 -0.07986005 -0.094212905 -0.020325193 -0.020872233
0.05065707 -0.13187638 -0.069376506 0.06479881 0.03460475 0.03676272 -0.018868446 0.010970741
0.07366605 -0.08698035 -0.0026570908 0.04601483 0.08534798 -0.05176333 0.011785653 0.06860813
-0.011696388 0.059907846 -0.03901059 -0.14807527 0.108321115 0.113204986 0.030906335 -0.10025063
0.032125358 0.13168214 0.008994961 0.030660102 0.17290148 0.06222979 0.22626805 0.04877128
-0.06626572 -0.02508202 0.18505271 0.07004752 0.01978676 0.048136346 0.09136837 0.01689098
0.09329359 0.023608923 -0.13360395 -0.09076496 -0.061796114 -0.01774691 -0.01856604 0.04842196
-0.019485734 0.07554514 -0.019865701 0.014689945 0.070030205 -0.0977179 0.085133426 0.008003057
-0.027886724 -0.05341629 0.003127969 0.09275206 0.011505789 0.068670824 -0.010649235 -0.085208654
0.049073104 0.023201978 0.06452464 -0.005397581 0.117038794 0.094056696 0.04742041 0.051415317
0.052008126 -0.043497093 -0.106741294 0.02261568 0.090308554 0.00025740857 0.09331774 -0.04442646
-0.10735455 0.01935786 0.0013405036 -0.027359685 0.06759631 0.025298486 0.00035908568 0.10196508
0.108896025 -0.020203555 0.034488477 0.036232647 -0.022410827 0.113298036 -0.059477627 0.11078642
-0.10857754 -0.03309138 -0.02898448 0.019834511 -0.058953162 -0.054699358 0.042634815 -0.02620032
0.012307424 -0.09419517 -0.053191125 -0.092483014 0.011388232 -0.010799985 -0.062704675 0.10001273
-0.04577196 -0.05600695 -0.106073 0.058855984 -0.12122553 -0.07286219 -0.006655627 -0.0010308858
-0.05088643 -0.055976428 -0.034268044 -0.07931634 0.02431359 -0.14141545 -0.000944237 -0.020810276
-0.02539631 0.03006646 -0.07062718 0.033164483 0.043819927 -0.10172335 -0.11195932 0.06154222
0.03013029 0.039992616 -0.090080895 -0.042445153 0.0007684021 -0.0868677 -0.06563707 0.01806461
-0.031172233 -0.029717803 0.06258307 0.074261434 0.033192813 0.07705944 0.014031475 0.0025111686
00000000: ab19 963d 6e25 95bc 93b7 b8bd caf1 72bd
00000010: 9f97 27bd ddb7 0a3e 06e0 55bd 1d25 1bbe
00000020: 933e 0e3c 7345 a0bd 2205 06bd 108a 2a3d
00000030: 246b 9a3d e567 e23d 2793 b23d 5ca7 c73d
00000040: 2cf0 b9bd b84a 8a3c 6949 1cbd 6472 77bd
00000050: deb8 1abd 7d68 1cbe 15db f7bd ccb9 abbc
00000060: f493 3abd edea 52bd f80c ad3d ff11 713d
00000070: 4043 02be 1d0f 8cbc 4fb2 adbd dbb9 3a3d
00000080: 0dd9 cdbd a063 353b f41b 013e 0041 103c
00000090: 38b3 21bd 90a2 5b3c b9ed 60bd 534d 0dbd
000000a0: d788 58bd c7f4 213d 8250 533d 385d 583d
000000b0: f094 7dbd 1f48 9f3d ee0b 613d f240 c1bb
000000c0: 3869 033d 4c8a cfbc 3bf9 e93d 3049 353d
000000d0: 194a c1bd 0593 b83d 2daf 00bd fabe 243c
000000e0: 6c3e 91bd ae6b 0abd fe77 81bd d49d 6d3d
000000f0: d661 3fbd 2407 a53d 2afe cdbd 09ce d33d
00000100: 5b31 983d 2055 5fbd cbf4 9abb 4a0b 873d
00000110: 3d8a 473d 021f 82bd f25b a5bd 046a a43c
00000120: 2cc6 c8bc 4a2f ec3d 70bd 5c3d b6dd a93d
00000130: 4359 dc3d 6399 9e3d fb8f 3bbd f71a d0bd
00000140: e093 89bd b3e9 97bd db3f e7bd fd61 e5bd
00000150: 69ae 9b3d e54d d5bd bea2 783d bed3 5d3d
00000160: ad3e 59bd 3ab9 803e 8614 9ebc 754e 3eba
00000170: 7dde c6bd 7598 b23d a86d 6dbc 3fdd dfbd
00000180: 14c4 443c b07c 2d3e d3bd a13d 5ba0 033e
00000190: aa8d a3bd b2f2 c0bd 0581 a6bc 3ffc aabc
000001a0: ca7d 4f3d 9a0a 07be 4515 8ebd 3db5 843d
000001b0: b6bd 0d3d 8294 163d 0092 9abc 9fbe 333c
000001c0: 3ade 963d c122 b2bd 9622 2ebb 0c7a 3c3d
000001d0: ecca ae3d c905 54bd 9d18 413c 6b82 8c3d
000001e0: 35a2 3fbc ee61 753d 92c9 1fbd 0ba1 17be
000001f0: 76d7 dd3d 04d8 e73d 482f fd3c 3450 cdbd
00000200: e195 033d afd7 063e 9a5f 133c e52a fb3c
00000210: 160d 313e aae4 7e3d d0b2 673e 65c4 473d
00000220: 52b6 87bd cf78 cdbc 757e 3d3e 1375 8f3d
00000230: d817 a23c 9e2a 453d 571f bb3d f45e 8a3c
00000240: b610 bf3d 8067 c13c 79cf 08be fbe2 b9bd
00000250: ec1d 7dbd f861 91bc cf17 98bc 1b56 463d
00000260: 8ca0 9fbc 69b7 9a3d 65bd a2bc 18ae 703c
00000270: ff6b 8f3d 5320 c8bd 6f5a ae3d 411f 033c
00000280: b372 e4bc 0acb 5abd 9dfe 4c3b cbf4 bd3d
00000290: c782 3c3c 4aa3 8c3d 217a 2ebc e081 aebd
000002a0: e100 493d 1312 be3c 7f25 843d 31de b0bb
000002b0: 09b2 ef3d cca0 c03d e73b 423d de98 523d
000002c0: 7906 553d 022a 32bd 2e9b dabd 8544 b93c
000002d0: b1f3 b83d cbf4 8639 5f1d bf3d 85f8 35bd
000002e0: b4dc dbbd 6094 9e3c d6b3 af3a 6b21 e0bc
000002f0: ef6f 8a3d c53e cf3c aa43 bc39 11d3 d03d
00000300: e104 df3d ed81 a5bc ca43 0d3d af68 143d
00000310: e996 b7bc cd08 e83d d09e 73bd fee3 e23d
00000320: e75d debd d48a 07bd dc70 edbc fc7b a23c
00000330: df78 71bd 6f0c 60bd d8a1 2e3d 0ea2 d6bc
00000340: 14a5 493c 66e9 c0bd f0de 59bd bc67 bdbd
00000350: b595 3a3c 6cf2 30bc 4f6b 80bd 79d3 cc3d
00000360: 617b 3bbd 8b67 65bd cd3c d9bd f912 713d
00000370: 1745 f8bd c638 95bd 7217 dabb ca1e 87ba
00000380: 4a6e 50bd 8a47 65bd a65c 0cbd 9b70 a2bd
00000390: 4b2d c73c 36cf 10be ac86 77ba 507a aabc
000003a0: ec0b d0bc f04d f63c fca4 90bd 7bd7 073d
000003b0: 867c 333d 5554 d0bd ee4a e5bd b213 7c3d
000003c0: ccd3 f63c 4ccf 233d 557c b8bd f8da 2dbd
000003d0: 986e 493a b1e7 b1bd ba6c 86bd 3cfc 933c
000003e0: e95c ffbc c072 f3bc 8d2b 803d 6116 983d
000003f0: 30f5 073d 57d1 9d3d 46e4 653c 6b92 243b

layer1.11.bias f4 [10]
0.13010806 0.03910887 -0.09235949 0.11915939 -0.07074522 -0.050341032 0.071841605 -0.12171059
-0.037711263 -0.043632846
00000000: 0c3b 053e 9f30 203d f926 bdbd d709 f43d
00000010: dfe2 90bd 6632 4ebd b121 933d 6743 f9bd
00000020: 2077 1abd 5bb8 32bd
